Assets/results/BBConcurrent/BalanceBall/BalanceBall-499646.onnx (onnx, 77052 bytes, 9 tensors)

network_body.observation_encoder.processors.0.normalizer.running_mean f4 [8]
0	0x3f25641c	0.6460588
1	0x3fa13758	1.2595015
2	0x3d18fb0f	0.037348803
3	0x3987a14f	0.0002586939
4	0x3d2fd420	0.042926908
5	0x39ef0192	0.00045586802
6	0xbc77eaf2	-0.015131699
7	0x3aeb73eb	0.0017963623

network_body._body_endoder.seq_layers.0.weight f4 [128, 8]
0	0xbf28cefe	-0.65940845
1	0xbe6864b4	-0.22694665
2	0x3cf58db3	0.029974794
3	0xbf2e2db6	-0.680385
4	0x3f33c8de	0.70228374
5	0xbee8c9e0	-0.45466518
6	0xbe4a174f	-0.19735454
7	0xbf04fdbe	-0.5194968
8	0x3e8e0ec5	0.27745643
9	0xbdeafaa4	-0.11473587
10	0x3e8520d1	0.260016
11	0xbf239c2a	-0.6391016
12	0x3e67168d	0.22567196
13	0x3ebe102c	0.37121713
14	0x3f06fb8b	0.52727574
15	0x3ec137a3	0.3773776
16	0xbf0333dc	-0.51251006
17	0x3ec921f8	0.3928373
18	0x3e983cda	0.29733926
19	0x3ac6d180	0.0015168637
20	0xbd84bbb5	-0.06481115
21	0xbd6daac3	-0.05802418
22	0x3d5d238f	0.05398899
23	0x3eeb6bf5	0.45980802
24	0x3f012bc1	0.5045739
25	0xbe2346a4	-0.15944916
26	0x3f290e4f	0.6603746
27	0xbe96c88f	-0.2944989
28	0xba37ccce	-0.0007011414
29	0x3b895693	0.0041912287
30	0x3ee2e820	0.44317722
31	0x3e4f7aaa	0.20261636
32	0xbde42f5e	-0.11141847
33	0xbd951fab	-0.07281431
34	0x3d7801b6	0.060548507
35	0x3f243ea6	0.64158094
36	0x3e3d380c	0.18478411
37	0xbe025111	-0.12726237
38	0xbef376a0	-0.4755144
39	0x3d074771	0.033027116
40	0xbde22f5f	-0.110441916
41	0xbe44e3da	-0.19227543
42	0xbf52f2da	-0.8240181
43	0x3eb81098	0.3595016
44	0x3dd73829	0.105087586
45	0xbddb37d2	-0.10704006
46	0x3d9197b5	0.07109014
47	0x3e0482b1	0.1294048
48	0x3d5a1537	0.05324289
49	0x3ebb1bc1	0.36544612
50	0xbea3671c	-0.31914604
51	0xbde2d08c	-0.110749334
52	0xbdfe222d	-0.12408862
53	0xbdd5e170	-0.104433894
54	0x3e8186d0	0.25298166
55	0x3d90a785	0.07063202
56	0xbeedc16d	-0.46436635
57	0xbea1efc8	-0.3162825
58	0x3e5a2113	0.2130168
59	0xbe978610	-0.2959447
60	0x3d12d82a	0.03585068
61	0xbf0fd2f2	-0.5618125
62	0x3eb07b6b	0.3446916
63	0xbebfeda5	-0.37485996
64	0xbd7fb6d1	-0.062430207
65	0xbdb0ac82	-0.08626653
66	0x3ee0888e	0.43854183
67	0xbe423e09	-0.18968977
68	0xbd07ad9e	-0.03312456
69	0xbf066d5c	-0.5251062
70	0x3f2888f6	0.65833986
71	0x3efcc9c3	0.49372682
72	0xbde4a1a1	-0.11163641
73	0xbf5bb002	-0.8581544
74	0x3ead44fc	0.33841693
75	0x3f02f3a3	0.5115301
76	0xbea5c100	-0.3237381
77	0xbd76552c	-0.06013982
78	0x3d9ef43f	0.0776143
79	0xbe4db3eb	-0.20088165
80	0x3f2626b7	0.64902824
81	0x3e50ebfc	0.20402521
82	0xbdbd63db	-0.092475615
83	0x3d79f759	0.061026905
84	0x3da95bde	0.082694754
85	0xbf0705c0	-0.5274315
86	0xbe66bbd7	-0.22532593
87	0xbdae44df	-0.0850923
88	0xbef8cf56	-0.48595685
89	0xbedfa167	-0.43677828
90	0x3eea9492	0.45816475
91	0x3e35542f	0.17707895
92	0xbe4815e0	-0.19539595
93	0xbe896107	-0.26831838
94	0x3e3fd90c	0.1873514
95	0x3e3509a7	0.17679463
96	0xbedaf742	-0.42766768
97	0x3e8d01fe	0.27540582
98	0x3f65d144	0.8977244
99	0x3d9e5a34	0.07732049
100	0x3e0a3888	0.13498127
101	0xbd20c7f4	-0.03925319
102	0x3de810c5	0.113313235
103	0x3ee3543c	0.44400203
104	0xbe7c4188	-0.24634373
105	0xbdf0f24c	-0.117649645
106	0xbe651dfb	-0.22374718
107	0x3ea800a3	0.32812986
108	0xbeca6310	-0.39528704
109	0xbe823901	-0.25434116
110	0xbd9ecd23	-0.077539705
111	0xbc981f46	-0.0185696
112	0x3da9fbf0	0.083000064
113	0x3ebc45f9	0.36772135
114	0x3f39ff3f	0.726551
115	0x3e20c801	0.15701295
116	0xbbe0f41f	-0.006865039
117	0xbb29ae93	-0.0025891408
118	0x3ecd0644	0.40043843
119	0xbe75b01a	-0.23992959
120	0x3db916ea	0.09037574
121	0x3e5a21d4	0.21301967
122	0xbdb175c9	-0.08665044
123	0xbe30d6fb	-0.17269509
124	0xbe16b6d6	-0.14718184
125	0x3f1c355f	0.6101894
126	0x3e039327	0.12849103
127	0xbe6e9286	-0.23298082
128	0x3ec6deb1	0.38841775
129	0x3eb6567b	0.35612854
130	0xbe95d2c3	-0.2926236
131	0x3d47f183	0.048814308
132	0x3e61255a	0.21986905
133	0xbe45a3a7	-0.1930071
134	0xbef908eb	-0.48639616
135	0x3c37937e	0.0112045985
136	0x3ceb4f2b	0.028724274
137	0xbe9d2f65	-0.30700222
138	0xbec46c7c	-0.38364017
139	0x3f3c9a85	0.7367328
140	0xbf3da086	-0.74073064
141	0x3e5648f9	0.20926274
142	0x3e0b0dc6	0.13579473
143	0x3eea1c95	0.4572493
144	0x3eea1d63	0.45725545
145	0xbf14cc0f	-0.5812387
146	0xbc059385	-0.008152847
147	0xbc1b50d1	-0.009479717
148	0xbecae096	-0.3962447
149	0x3d59d087	0.053177383
150	0x3f1a6733	0.6031372
151	0x3e16f2b6	0.14741024
152	0x3e2646f4	0.16238004
153	0x3d868406	0.0656815
154	0x3ee3e263	0.44508657
155	0x3ca98b54	0.02069632
156	0xbef72c6e	-0.48276085
157	0xbb0ec605	-0.002178551
158	0xbe05f96c	-0.13083428
159	0x3e74f6ec	0.23922318
160	0xbe01ad50	-0.1266377
161	0xbdecc6e5	-0.115613736
162	0x3cdc5733	0.026897049
163	0xbd0057b8	-0.031333655
164	0xbdef6833	-0.11689796
165	0xbd4cd381	-0.050006393
166	0xbe1e3982	-0.15451625
167	0xbddbfe43	-0.10741856
168	0x3e73d298	0.23810804
169	0xbdec97d6	-0.11552398
170	0x3f20abdb	0.6276223
171	0x3d243572	0.040090032
172	0xbe8f2359	-0.27956656
173	0x3da1438d	0.078742124
174	0x3ea67b45	0.32515922
175	0xbe53d709	-0.20687498
176	0xbe9a09a3	-0.30085477
177	0x3df16703	0.11787226
178	0xbdf07b5f	-0.11742281
179	0xbed8d908	-0.42353082
180	0x3cc4f426	0.0240422
181	0xbe297726	-0.16549358
182	0x3e646f97	0.22308193
183	0x3ec2012a	0.37891513
184	0xbd82dcb1	-0.0638975
185	0x3ee822bf	0.4533901
186	0xbe2dd70e	-0.16976568
187	0x3e953492	0.2914167
188	0x3ea82a64	0.3284484
189	0xbd3c0ea5	-0.045912404
190	0x3ca98637	0.020693881
191	0xbea217b9	-0.31658724
192	0xbdf7f1f4	-0.12106696
193	0x3f2894c7	0.65852016
194	0xbe0cb4c6	-0.13740835
195	0x3e27af83	0.16375546
196	0xbd8c94ce	-0.0686432
197	0x3dd2ef4c	0.102995485
198	0xbdf95a94	-0.121754795
199	0x3e9b476a	0.30327922
200	0x3c1aba2f	0.009443804
201	0xbe9d8e20	-0.30772495
202	0x3e993dbf	0.2992992
203	0x3e557c6e	0.20848247
204	0xbd002532	-0.031285472
205	0xbecfad2e	-0.40561813
206	0x3f727409	0.94708306
207	0x3ccdd6cf	0.025126843
208	0xbf181fcb	-0.5942351
209	0x3d34e182	0.044160374
210	0xbed21496	-0.4103133
211	0x3ea8eca4	0.32993042
212	0xbea01f56	-0.31273907
213	0x3e61cbc9	0.22050394
214	0x3e677882	0.22604564
215	0xbf4a7ced	-0.7909687
216	0x3e70bb88	0.23509037
217	0xbcfa77f4	-0.030574776
218	0x3f0d425d	0.5517939
219	0x3e237503	0.15962605
220	0x3ee3664c	0.44413984
221	0x3bb3f6b5	0.0054920563
222	0xbf208119	-0.6269699
223	0xbd8f2e42	-0.06991245
224	0x3c8e06e0	0.017337263
225	0x3ed2ee5d	0.41197482
226	0xbf4b60c9	-0.7944456
227	0x3f1ea5db	0.61971825
228	0xbe1ab545	-0.15108211
229	0x3d73375c	0.059378967
230	0xbe31242a	-0.17298952
231	0x3f58f1e0	0.8474407
232	0x3e52a181	0.20569421
233	0xbec804f7	-0.39066288
234	0xbed1416c	-0.40870225
235	0x3e6aab94	0.22917014
236	0xbd816381	-0.06317807
237	0xbee327fb	-0.4436644
238	0x3f0603a6	0.5234932
239	0x3eccc65e	0.39995092
240	0x3c6ba960	0.014383644
241	0x3bc0aa57	0.005879681
242	0x3e3463ea	0.17616239
243	0xbe8b6ea1	-0.2723284
244	0x3d57fcef	0.05273145
245	0xbe2dd04d	-0.16973992
246	0xbedb1c25	-0.4279491
247	0x3d98cfe6	0.074615285
248	0xbd9d0d25	-0.07668523
249	0xbf0e82c0	-0.5566826
250	0x3f427d7f	0.7597274
251	0xbec2189f	-0.3790941
252	0x3e017ccd	0.12645264
253	0x3f243bb7	0.6415362
254	0xbefdd793	-0.49578533
255	0xbd3d92ad	-0.04628246

network_body._body_endoder.seq_layers.0.bias f4 [128]
0	0xbd0fcb84	-0.035106197
1	0xbcfea195	-0.031082908
2	0xbbb79924	-0.0056029726
3	0xbb45327e	-0.003008991
4	0xbca19798	-0.019725606
5	0xbcdac3bd	-0.026704663
6	0xbcd47f28	-0.02593954
7	0x3bd157e8	0.006388653
8	0x3be09473	0.006853634
9	0xbcc53465	-0.024072835
10	0x3b38f0de	0.002821974
11	0x3cc4b183	0.024010425
12	0xbd1f56fc	-0.038901314
13	0xbc420aa6	-0.011843359
14	0xbd0fc9b9	-0.035104487
15	0xbd695230	-0.056963146
16	0xbd1c7169	-0.038194094
17	0x3bd6e0e1	0.0065575694
18	0xbc55a127	-0.01303891
19	0x3b861ba0	0.0040926486
20	0x39f0b92d	0.00045914334
21	0xbc747292	-0.014919894
22	0xbc97f706	-0.018550407
23	0x3cf2a230	0.029618353
24	0x3c7d6fba	0.015468532
25	0xbd54f40f	-0.051990565
26	0x3c46b072	0.012127029
27	0xbc8e890d	-0.017399335
28	0xbc9f03a3	-0.019410914
29	0xbb8a3488	-0.004217688
30	0xbd33885f	-0.043831225
31	0xbd0b5fdc	-0.034026965
32	0xbd40f318	-0.047106832
33	0xbcd2fe74	-0.025756098
34	0xbd04edd6	-0.03245338
35	0xbc6d91fd	-0.014500138
36	0xbceec563	-0.029146856
37	0xbcbbfb47	-0.022946967
38	0xbd71dc90	-0.059048235
39	0xbda1ac9c	-0.07894251
40	0xbc431f8c	-0.011909377
41	0xbd565891	-0.052330557
42	0xbc3a5557	-0.011372886
43	0xbc5d3734	-0.013501931
44	0xbc68be76	-0.014205566
45	0x3bca0a3f	0.006165772
46	0xbd3138df	-0.043267127
47	0xba518ea6	-0.00079939736
48	0xbca5ce62	-0.020240013
49	0xba8df275	-0.0010829704
50	0xbc0ca853	-0.0085850535
51	0xbcf200ea	-0.029541451
52	0xbbdbb69b	-0.006705118
53	0xbcd318aa	-0.025768597
54	0xbc843313	-0.016137635
55	0xbd89e739	-0.06733555
56	0xbcec87d4	-0.028873362
57	0xbcc1adbc	-0.023642413
58	0x3cd45a6d	0.025922025
59	0xbceb056f	-0.028689114
60	0xb8c60909	-9.443059e-05
61	0xbb133b7f	-0.0022465882
62	0xbcbb3ce8	-0.02285619
63	0xbc26aaa4	-0.01017252
64	0x3c1de685	0.00963748
65	0xbcdf7393	-0.02727679
66	0x3bf134e0	0.0073610395
67	0xbd849b26	-0.06474905
68	0x3c755cb4	0.014975715
69	0xbd07ae18	-0.033125013
70	0xbca68ea0	-0.02033168
71	0xbd22c798	-0.03974113
72	0xbc3b14df	-0.01141855
73	0xbca66590	-0.0203121
74	0xbbbaa065	-0.00569539
75	0xbcb6d149	-0.022316592
76	0x3a5d682e	0.0008446005
77	0xbc8e52bc	-0.017373435
78	0xbc6652c4	-0.014057819
79	0xbc9bd8ed	-0.019024337
80	0xbd58a91f	-0.05289566
81	0xbc947495	-0.018121997
82	0x3c2a8e34	0.01040988
83	0x3c4d9b17	0.012549183
84	0xbc2f8b53	-0.01071437
85	0xbcadfeda	-0.021239687
86	0xbbaf8ef2	-0.0053576166
87	0xbc50e223	-0.012749228
88	0xbd879dc7	-0.066218905
89	0xbc3d5a93	-0.011557239
90	0xbc3f8250	-0.011688784
91	0xbcae2071	-0.021255704
92	0x3a7a8af0	0.00095574465
93	0xbc864e2b	-0.016394695
94	0xbd2e58d9	-0.0425652
95	0xbb9722b0	-0.0046122894
96	0x391feee7	0.0001525242
97	0xbd94e6d2	-0.07270588
98	0xbc28ef23	-0.010310921
99	0x3ce0f15a	0.027458835
100	0xbb784e8d	-0.0037888617
101	0xbb7f37af	-0.0038943102
102	0xbc9fd04c	-0.019508503
103	0xbc170ac0	-0.009218872
104	0xbc3ee4bc	-0.011651214
105	0xbd6a846a	-0.057255186
106	0xbcea5893	-0.028606689
107	0xbd0760f3	-0.033051442
108	0xbc7fbe14	-0.015609283
109	0x3b56dd0e	0.0032785567
110	0x3c5bbd2e	0.013411803
111	0xbc83909b	-0.016060164
112	0xbc242f4d	-0.010021043
113	0xbce364cd	-0.027758026
114	0xbc60a67b	-0.013711567
115	0xbcae770f	-0.021297006
116	0xbd22d91f	-0.039757844
117	0xbd9edabc	-0.07756564
118	0xbc5af69a	-0.013364458
119	0xbd1a3660	-0.037649512
120	0xbd55ae72	-0.052168317
121	0xbc9c2894	-0.019062318
122	0xbba906d0	-0.005158283
123	0xbc91d84a	-0.01780333
124	0xbbb18b74	-0.0054182354
125	0x3c8597cc	0.016307734
126	0x3b87141a	0.0041222693
127	0xbd13e602	-0.036108024

network_body._body_endoder.seq_layers.2.weight f4 [128, 128]
0	0xbdc33bc6	-0.09532885
1	0xbd3f74df	-0.046742316
2	0xbd200408	-0.039066344
3	0xbdd1b539	-0.102396436
4	0xbcb92551	-0.022600802
5	0xba3018a9	-0.0006717542
6	0x3c7be272	0.015373813
7	0xbe8499cd	-0.2589859
8	0x3d54df5f	0.051970836
9	0xbe0d2ab5	-0.13785823
10	0x3d3cb7e0	0.046073794
11	0x3e17f9ca	0.1484138
12	0x3cf08f8c	0.029365323
13	0x3dc00a55	0.09376971
14	0xbd1dcd29	-0.038525734
15	0xbdbc75fe	-0.09202193
16	0x3e26a7be	0.16274926
17	0x3d71fb81	0.059077743
18	0x3d2f755d	0.042836536
19	0x3c963379	0.018335091
20	0x3dadebb5	0.08492223
21	0x3d127036	0.035751544
22	0xbc996dc5	-0.0187291
23	0x3d7ad0fb	0.061234456
24	0xbe0d06d0	-0.1377213
25	0xbde5255c	-0.11188766
26	0x3d92c92b	0.07167276
27	0xbe429ae1	-0.19004394
28	0xbe026c95	-0.12736733
29	0xbd3d21d1	-0.046174828
30	0xbc2567e8	-0.010095574
31	0xbdb9c56b	-0.090708576
32	0x3d8df090	0.06930649
33	0xbbcf5e0b	-0.0063283495
34	0xbdff49f7	-0.124652795
35	0xbe00f875	-0.12594779
36	0x3c2ecedf	0.010669439
37	0x3dd03a6d	0.10167394
38	0xbaffa154	-0.0019503036
39	0x3d00b613	0.03142364
40	0xbd053e42	-0.032530077
41	0xbd030419	-0.03198633
42	0x3ccadc01	0.02476311
43	0x3deab1fe	0.114597306
44	0xbdf94a09	-0.12172324
45	0x3e7a2b11	0.24430491
46	0xbdac4828	-0.084122
47	0x3d245c01	0.040126804
48	0xbd8eba6c	-0.06969151
49	0xb9f1e7ef	-0.00046139906
50	0xbdcbdc69	-0.09954149
51	0xbda85242	-0.082188144
52	0x3d0d1a7e	0.034449093
53	0x3e0b8a0e	0.13626882
54	0x3d41485d	0.04718815
55	0x3d220438	0.039554805
56	0xbd12d081	-0.035843376
57	0x3bbb9d6d	0.0057255537
58	0xbd396dfd	-0.04527091
59	0x3d1bb437	0.038013663
60	0xbdc5593a	-0.09636159
61	0xbe07ec22	-0.13273671
62	0x3db676d0	0.089093804
63	0x3d4c6319	0.049899194
64	0x3c05b917	0.008161805
65	0x3db43fe8	0.08801252
66	0x3e4b47f1	0.19851662
67	0xbd07bdd3	-0.033140015
68	0xbde28504	-0.11060527
69	0xbd32d3aa	-0.04365889
70	0xbde9e1d9	-0.1142003
71	0xbe571b05	-0.21006401
72	0x3e2c2c8b	0.16813867
73	0x3e00c14e	0.1257374
74	0xbc40a136	-0.011757186
75	0x3a820124	0.0009918553
76	0xbe010766	-0.12600479
77	0xbd0f6559	-0.035008762
78	0x3d06b790	0.032889903
79	0x3b712caa	0.0036800303
80	0x3d96d28b	0.07364377
81	0x3db966a8	0.09052783
82	0xbdc98caf	-0.098412864
83	0xbd5dee1a	-0.05418215
84	0x3dd9442f	0.10608708
85	0xbcc7b258	-0.024377033
86	0xbdd8b7f0	-0.10581958
87	0xbdace358	-0.084418
88	0xbd5ecf43	-0.05439688
89	0xbb394a9c	-0.002827323
90	0x3e03a254	0.12854892
91	0x3d23732f	0.03990477
92	0xbc23d4f9	-0.009999507
93	0xbdef3db9	-0.116816945
94	0xbc1a8941	-0.009432138
95	0xbdea8388	-0.11450869
96	0x3a92caf7	0.0011199404
97	0xbd54be15	-0.05193909
98	0x3dc9d7d5	0.0985562
99	0x3dafca6e	0.08583532
100	0x3db07969	0.08616907
101	0x3d76ec99	0.06028423
102	0x3ddf058e	0.10889731
103	0xbc8ecb1f	-0.01743084
104	0x3dbdef26	0.092741296
105	0x3cd11c8c	0.025526308
106	0x3d394ec9	0.04524115
107	0xbd4ca1d6	-0.049959026
108	0xbccb3c8f	-0.02480915
109	0xbd0a0a67	-0.033701327
110	0x3e0a1ea0	0.13488245
111	0xbd9d7e6c	-0.07690129
112	0x3cb36342	0.021897916
113	0x3da3c8f9	0.07997317
114	0xbcb8659b	-0.022509387
115	0xbda15125	-0.07876805
116	0xbd0c7798	-0.03429374
117	0xbbc45465	-0.005991506
118	0xbd8a2332	-0.06744994
119	0xbe070ec1	-0.13189222
120	0x3ceb6818	0.02873616
121	0xbcf6502b	-0.030067524
122	0x3d78d442	0.0607493
123	0xbd952078	-0.072815835
124	0x3db80787	0.08985811
125	0x3c0f60ce	0.008751107
126	0xbe3f9dba	-0.18712512
127	0x3e2f6c75	0.17131217
128	0xbd6d444b	-0.057926457
129	0xbd63245e	-0.055454604
130	0x3db77927	0.08958655
131	0x3cc561e9	0.024094539
132	0xbe4eb779	-0.20187177
133	0x3e282849	0.16421618
134	0x3c8a30b1	0.016868921
135	0xbc94d58b	-0.018168231
136	0x3cb36505	0.021898756
137	0xbd0100a1	-0.03149474
138	0x3db65b18	0.089040935
139	0xbe04c639	-0.12966241
140	0x399bb509	0.00029698786
141	0xbe16cbf7	-0.14726244
142	0x3cf28c6d	0.029607976
143	0x3da6bccd	0.0814148
144	0x3d697818	0.056999296
145	0xbe238c53	-0.15971498
146	0x3dac093e	0.084002
147	0x3c45336d	0.012036187
148	0xbda41eb0	-0.08013666
149	0xbd106222	-0.035249837
150	0xbd98a269	-0.07452852
151	0x3cdfe901	0.027332785
152	0x3ce24863	0.027622407
153	0xbd29a7b9	-0.04141972
154	0x3e80cb91	0.2515531
155	0x3dc48846	0.095963046
156	0xbc35eaa6	-0.011103308
157	0xbe8cdd35	-0.27512518
158	0x3de29dd5	0.1106526
159	0xbe00e56e	-0.1258752
160	0x390a8f36	0.00013214056
161	0xbd76e4a2	-0.060276635
162	0xbc272bcc	-0.010203313
163	0x3c9d8bbd	0.019231671
164	0xbd953aab	-0.07286581
165	0x3d4af12a	0.0495464
166	0xbde9ceb3	-0.11416378
167	0xbd4160b8	-0.04721138
168	0xbc986ddb	-0.01860707
169	0xbe0d596d	-0.13803644
170	0xbd99d9f6	-0.07512276
171	0x3d078d81	0.033093933
172	0xbd8f112d	-0.06985698
173	0x3d4a9f51	0.049468342
174	0x3a859440	0.0010191277
175	0xbc40b365	-0.011761521
176	0x3e06dd86	0.13170442
177	0x3e09bca7	0.13450871
178	0x3c53837e	0.012909768
179	0x3d34fcd5	0.044186432
180	0x3d698dfa	0.057020165
181	0x3d3dfbed	0.046382833
182	0xbdfc0234	-0.12305108
183	0xbd921773	-0.07133379
184	0xbe1061c2	-0.14099792
185	0x3d7ab4b9	0.061207507
186	0xbd3bd3d5	-0.045856316
187	0x3dd16208	0.10223776
188	0xbdff45ca	-0.12464483
189	0x3d5df263	0.054186236
190	0xbd9d34e3	-0.07676103
191	0xbc9cfd93	-0.019163882
192	0x3de08d3a	0.10964437
193	0xbcaf4392	-0.021394525
194	0xbcec4b02	-0.02884436
195	0x3c2ec690	0.010667458
196	0x3ca4511d	0.02005821
197	0xbd954608	-0.07288748
198	0xbbff7b5a	-0.007796687
199	0xbc805dfe	-0.015669819
200	0xbd35b232	-0.044359393
201	0xbdbfa2e5	-0.093572415
202	0xbd63a2a4	-0.055575028
203	0xbc8fcf6e	-0.017554965
204	0xbdf36ee3	-0.11886384
205	0x3d297339	0.04136965
206	0x3d690a72	0.056894727
207	0xbcbb7cb0	-0.022886604
208	0x3deea3d4	0.116523415
209	0x3c289d4d	0.01029141
210	0x3c3ea010	0.011634842
211	0xbda88d61	-0.08230091
212	0x3d9e6a53	0.077351235
213	0xbdc40d28	-0.09572822
214	0x3c8e79be	0.017392036
215	0xbd566534	-0.05234261
216	0x3e0a99ba	0.13535205
217	0xbe4f11d2	-0.20221642
218	0xbd89ad45	-0.06722502
219	0xbcaef1f1	-0.021355601
220	0xbdd4e641	-0.1039548
221	0x3df1743a	0.117897466
222	0x3e06a68b	0.13149469
223	0x3be9af07	0.0071314606
224	0x3d14f43a	0.036365725
225	0xbdd0ae6b	-0.101895176
226	0xbd4a51cd	-0.049394418
227	0x3d25be7c	0.040464863
228	0x3dd0530d	0.10172091
229	0xbd255c91	-0.04037148
230	0xbd3b4db0	-0.045728385
231	0xbc8cba6c	-0.017178737
232	0xbe0943ce	-0.13404772
233	0x3d5f66af	0.054541286
234	0x3c877472	0.016535018
235	0xbda222f3	-0.07916822
236	0x3b229a8d	0.0024811358
237	0x3de67de8	0.112544835
238	0x3cd7e0d1	0.026352318
239	0x3db6ed24	0.0893195
240	0x3c9c4f6b	0.019080838
241	0x3d8a7c5a	0.067619994
242	0x3dbe921a	0.093052104
243	0xbcff15c3	-0.031138306
244	0xbdbda3da	-0.09259768
245	0x3b8f073b	0.0043648756
246	0xbbf6a04c	-0.007526433
247	0x3d3083f3	0.043094587
248	0xbe0541a1	-0.13013317
249	0xbdff2da7	-0.12459879
250	0xbe3f11b9	-0.18659104
251	0x3b309552	0.002694447
252	0xbcfc6a85	-0.030812511
253	0x3e437e93	0.19091253
254	0x3d513393	0.051074576
255	0xbe6266e0	-0.22109556

network_body._body_endoder.seq_layers.2.bias f4 [128]
0	0xbcc56904	-0.024097927
1	0xbc97105f	-0.018440424
2	0xbbca6f8c	-0.006177848
3	0xbd00ab2a	-0.031413235
4	0xbc7d5cb9	-0.015464001
5	0x3c018dc6	0.007907337
6	0xbad39c3f	-0.0016144587
7	0xbbc05317	-0.00586928
8	0x3c85a12d	0.016312206
9	0x3b82a84a	0.003987347
10	0x3cdcc38d	0.026948715
11	0x3cb7bdf8	0.022429451
12	0xbce3d758	-0.027812645
13	0xbc52fee3	-0.012878153
14	0xbb984460	-0.004646823
15	0x39816a14	0.00024683832
16	0xbd1867cd	-0.037208367
17	0x3c58e42a	0.013237992
18	0xbd0b842b	-0.034061592
19	0xbcae27e0	-0.021259248
20	0xbc41a858	-0.011819921
21	0xbcbc910e	-0.023018386
22	0xbd2a29f8	-0.04154393
23	0xbbdadf83	-0.0066794767
24	0xbbc585e4	-0.006027924
25	0xbcceae9a	-0.02522974
26	0xbcbb608d	-0.022873187
27	0xbd16aab0	-0.036783874
28	0xbb6453c8	-0.0034839977
29	0xbd17d1d0	-0.037065327
30	0xbcd027e6	-0.02540965
31	0xbd290616	-0.04126557
32	0x3cc85037	0.024452312
33	0xbd7222cf	-0.059115227
34	0xbc257e0d	-0.010100854
35	0xbcff6ae5	-0.031178901
36	0xbd1c6b53	-0.03818829
37	0x3c74bb9c	0.014937308
38	0xbd1d610c	-0.03842263
39	0xbc8b9bfd	-0.017042154
40	0x3b87c942	0.004143865
41	0x3c0572e2	0.008145066
42	0xbc348026	-0.011016881
43	0xbc6028c9	-0.013681599
44	0xbc950c21	-0.01819426
45	0xbcc88881	-0.024479153
46	0x39f68656	0.00047020864
47	0xbcfc36e2	-0.030787889
48	0xbcf4dad6	-0.029889505
49	0x3c27f29a	0.010250712
50	0xbc413f54	-0.011794884
51	0xbd4f9a80	-0.050684452
52	0x3bda2bfb	0.006658075
53	0x3cb54aa1	0.022130312
54	0xbb8d066d	-0.0043037445
55	0xbc546fc5	-0.012966101
56	0xbc43befd	-0.011947391
57	0xbd4abeec	-0.049498484
58	0xbd50ce8f	-0.05097824
59	0xbcf6e476	-0.030138236
60	0xbc406880	-0.011743665
61	0x3c55e876	0.013055911
62	0xbccfacda	-0.025350977
63	0x3bc607e0	0.0060434192
64	0xbd8f0652	-0.069836274
65	0x3b86d7c5	0.004115077
66	0xbbaf5f42	-0.005351932
67	0xbccc55b7	-0.024943216
68	0x3b9b6d66	0.004743266
69	0xbd34a642	-0.04410387
70	0x3cb88d1b	0.022528222
71	0xbd778652	-0.060430832
72	0xbca876ee	-0.020564523
73	0xbcf60f85	-0.030036697
74	0xbd0c530e	-0.034258895
75	0xbd31b678	-0.043386906
76	0xbc79fc70	-0.01525794
77	0xbccb7673	-0.024836754
78	0xbc293592	-0.010327714
79	0xbce21e0a	-0.027602214
80	0xbcd76184	-0.026291616
81	0xbd3f497f	-0.04670095
82	0xbcdb5c1a	-0.026777316
83	0xbd1a936c	-0.03773825
84	0xbbfa91c8	-0.007646773
85	0xb90519df	-0.00012693506
86	0xbc124491	-0.00892748
87	0xbcf64dec	-0.030066453
88	0xbbd82cdb	-0.006597144
89	0xbcb6e8cf	-0.022327809
90	0xbd2457d6	-0.04012283
91	0xbc18d323	-0.009327683
92	0x3aaa31f0	0.0012984853
93	0xbb15535d	-0.0022785284
94	0xbc84411f	-0.016144333
95	0xbcfd665e	-0.030932602
96	0xbd48a326	-0.048983715
97	0xbcf8fa5f	-0.030392824
98	0xbc3545ed	-0.011064035
99	0x3cf16b6e	0.029470172
100	0x3ca742ee	0.020417657
101	0x3c1feb1b	0.009760643
102	0xbd159bba	-0.036525466
103	0x3c1dfff2	0.009643542
104	0xbc81b544	-0.015833504
105	0xbd27660c	-0.040868804
106	0xbd927db7	-0.071528845
107	0x3b21ac64	0.0024669403
108	0x3b202278	0.0024434607
109	0x3bad0839	0.005280521
110	0x3ca454f6	0.020060044
111	0x3c134308	0.008988149
112	0x3bd5e4f8	0.0065275393
113	0xbc99ecde	-0.018789705
114	0xbcda2c0c	-0.026632331
115	0xbc500edf	-0.012698858
116	0xbd1d508c	-0.038406894
117	0xbd0b6bf3	-0.034038495
118	0xbc86c1f4	-0.016449906
119	0xbca9f0d2	-0.020744715
120	0xbcc985da	-0.024599958
121	0xbd1aa595	-0.037755568
122	0xbc5fb295	-0.013653417
123	0xb90462da	-0.00012625326
124	0xbc830aef	-0.015996424
125	0xbbcfbfc1	-0.0063399975
126	0xbcb863ba	-0.02250849
127	0xbc6b19c3	-0.014349404

action_model._continuous_distribution.log_sigma f4 [1, 2]
0	0xbdb042b8	-0.086064756
1	0xbda48968	-0.08034021

action_model._continuous_distribution.mu.weight f4 [2, 128]
0	0xbbb31b03	-0.0054658665
1	0x3a95bebe	0.0011424643
2	0x3b9463a9	0.004528482
3	0x3b879c9e	0.0041385433
4	0xbc0b4ba7	-0.008501924
5	0x3a43cb2a	0.00074689335
6	0xbc48e8cd	-0.012262535
7	0x3c1d8239	0.009613567
8	0x3abd2c3a	0.0014432736
9	0xbc8af40c	-0.016962074
10	0xbd39d70b	-0.045371097
11	0xbcf69e04	-0.030104645
12	0xbb8bfa29	-0.004271765
13	0x3cea3684	0.028590448
14	0x3b7a1794	0.0038161026
15	0x3d7338d6	0.059380375
16	0xbb5dcb93	-0.0033843264
17	0x3cb12848	0.021625653
18	0x3ca8f8d7	0.020626469
19	0xbb6dfbfc	-0.0036313524
20	0xbcbf8a02	-0.023381237
21	0xbb530c0c	-0.0032203225
22	0x3a6f02cc	0.0009117543
23	0x3d10d27c	0.035356984
24	0x3c58f85e	0.013242809
25	0x3b3c6081	0.0028744044
26	0xbb00df36	-0.0019664294
27	0x3ca62c52	0.020284805
28	0x3cc78278	0.024354205
29	0xbb522985	-0.0032068205
30	0x3cbd710b	0.023125192
31	0x3b131664	0.0022443766
32	0xbc0eb54e	-0.008710219
33	0x3bb5f43a	0.0055527957
34	0x3d045e8c	0.03231673
35	0x3c96f51f	0.01842743
36	0xbbd309b3	-0.006440365
37	0xbc056943	-0.008142772
38	0x3c6cd38d	0.0144547345
39	0x3c88bf1b	0.016692689
40	0xbc575bc7	-0.01314444
41	0xbb6ea0e5	-0.0036411819
42	0x3be8aae2	0.007100449
43	0x3c51b978	0.012800567
44	0xbc56d0d8	-0.013111316
45	0x3c495118	0.012287401
46	0x3cf012dd	0.02930587
47	0xbb6b8979	-0.0035940094
48	0xbccf455b	-0.025301626
49	0xbd6e30e3	-0.05815209
50	0xbcb3a777	-0.02193044
51	0x3c830b80	0.015996695
52	0xbc6836b4	-0.0141731985
53	0x3c457e0a	0.012053976
54	0x3cadeb04	0.021230228
55	0x3a9009e4	0.0010989276
56	0xbc7bd22c	-0.015369933
57	0xbb69d093	-0.0035677298
58	0x3c6887e4	0.014192555
59	0xbad83005	-0.0016493803
60	0x3b1ebd40	0.0024221689
61	0x3b3b01c3	0.0028534986
62	0x3cc36542	0.023851994
63	0xbd102be9	-0.035198126
64	0x3c604938	0.013689332
65	0x3b9ab577	0.0047213393
66	0x3caef133	0.021355247
67	0x3c664453	0.014054376
68	0xbac1cb55	-0.0014785329
69	0x3c3b8f0c	0.011447679
70	0xbd095126	-0.033524655
71	0xba434abb	-0.00074497954
72	0x3c39bc7f	0.011336445
73	0xbad64d33	-0.0016349911
74	0xbc184820	-0.00929454
75	0x3b6a2e4b	0.003573316
76	0x3a25738b	0.0006311468
77	0xbc765ef0	-0.015037283
78	0x3c489924	0.012243543
79	0x3bd0d61a	0.006373179
80	0x3afdbdd3	0.001935894
81	0xbb83ad8e	-0.004018492
82	0xbc29e5ee	-0.010369761
83	0xbc4a2082	-0.012336852
84	0x3c371f33	0.011176872
85	0xbd3b3711	-0.045706812
86	0xbcd92222	-0.026505534
87	0x3c463445	0.012097423
88	0x3c9610fb	0.018318644
89	0x3c4a4c4e	0.012347294
90	0x3c042191	0.0080646435
91	0xbce0b318	-0.027429149
92	0xbc357608	-0.011075504
93	0x3a935f55	0.0011243621
94	0x3d2650dc	0.040604457
95	0xbc15583d	-0.009115276
96	0x3bdb72ac	0.0066970196
97	0x3c822c50	0.01589027
98	0x3c8c1e03	0.017104154
99	0x3c6a0fb4	0.0142859705
100	0xbb86c955	-0.004113356
101	0xbd0e8cac	-0.034802124
102	0xbb448b15	-0.0029990126
103	0xbc804314	-0.015656985
104	0x3b8cfdcd	0.0043027163
105	0xbcc35c84	-0.023847826
106	0xb9956335	-0.0002849341
107	0x3d60deec	0.054900095
108	0x3cdf669a	0.027270604
109	0xbce0650b	-0.027391931
110	0xbc31038c	-0.010804068
111	0x3d15aa47	0.036539342
112	0x3d29d320	0.04146111
113	0xbc819b3b	-0.01582109
114	0xbaa4795d	-0.0012548376
115	0xbcc918db	-0.024547985
116	0x3b33f2b4	0.0027457895
117	0xbc26c46b	-0.010178666
118	0xbc53bc0d	-0.012923253
119	0x3c02189c	0.007940438
120	0x3cb01264	0.021493144
121	0xb9a8a074	-0.00032163004
122	0xbc9af5b9	-0.018915998
123	0x3ca95212	0.020669017
124	0x3caf6026	0.021408152
125	0xbcf4afc1	-0.029868962
126	0xbabedd57	-0.0014561814
127	0xbb76844a	-0.0037615472
128	0x3bc50c5f	0.0060134376
129	0xbbcb570f	-0.0062054466
130	0xbc5fad99	-0.013652229
131	0x3aa9c302	0.0012951794
132	0x3cd48cf7	0.025946124
133	0xbd0fca01	-0.035104755
134	0x3d53f48c	0.05174689
135	0xbc8626a9	-0.016375856
136	0xbd0befc8	-0.03416422
137	0xbcadfcda	-0.021238733
138	0xbce88b34	-0.02838669
139	0xbcced2a8	-0.025246933
140	0xbb86d637	-0.004114892
141	0x3cb5a166	0.022171687
142	0xbcc17167	-0.023613645
143	0x3cb63aeb	0.022244891
144	0x3cc27394	0.023736753
145	0xbcc7c911	-0.024387868
146	0xbbc1855d	-0.0059057907
147	0x3cee64a8	0.029100731
148	0xbba1e9dc	-0.0049412083
149	0xba2d0b12	-0.0006601076
150	0x3b281a0b	0.0025650288
151	0xbc8673c7	-0.016412629
152	0x3c5b0600	0.01336813
153	0x3ba4f6c5	0.0050343
154	0xbc845e17	-0.016158147
155	0x3ab49931	0.0013778565
156	0xbc01b2bf	-0.007916152
157	0x3c1266ca	0.00893564
158	0x3c28b845	0.0102978395
159	0xbbc5e0bb	-0.006038753
160	0xbd618885	-0.055061836
161	0x39139f8c	0.00014078448
162	0x3962b692	0.00021621052
163	0x3c8c4e74	0.017127253
164	0x3c7373e2	0.014859172
165	0xbd8c18f9	-0.06840701
166	0x3ca6f805	0.020381937
167	0xbb881a1d	-0.0041535036
168	0xbd3cad58	-0.04606375
169	0xbc344abb	-0.011004145
170	0xbc169be5	-0.009192442
171	0x3aeab29a	0.0017906011
172	0xbbe07c78	-0.0068507753
173	0x3c884cc0	0.01663816
174	0x3cbe00da	0.023193765
175	0x3b39e25f	0.0028363687
176	0xbc49e34c	-0.012322258
177	0xbb97cffa	-0.004632947
178	0x3d2ac23a	0.041689135
179	0xbc2fd614	-0.010732193
180	0xbb228283	-0.002479703
181	0xbd7f8de2	-0.06239117
182	0x3c73a146	0.014869994
183	0x3d7f0a8e	0.062265925
184	0x3caf871b	0.021426728
185	0x3be075a6	0.0068499623
186	0x3c7e661a	0.015527273
187	0x3c640f3e	0.01391965
188	0x3bdb8f6c	0.006700447
189	0xbd7fc622	-0.062444814
190	0xbb697031	-0.003561985
191	0xbc5fd91a	-0.013662601
192	0x3c44c29d	0.01200929
193	0xbcda1f3a	-0.026626218
194	0x3d1d2421	0.038364533
195	0x3cd61330	0.026132196
196	0xbb6690dd	-0.003518156
197	0xbb3c9e7b	-0.0028780985
198	0xbd80b97f	-0.062853806
199	0xb83feb48	-4.575707e-05
200	0x3b9bfd1d	0.004760398
201	0x3c127b19	0.008940482
202	0x3cbd8e85	0.023139248
203	0x3c838e72	0.016059134
204	0x3a090663	0.0005227087
205	0x3caf2625	0.021380493
206	0x3d21c0fa	0.039490677
207	0xbb66d325	-0.0035221067
208	0x3bc41ac5	0.0059846365
209	0x3bc802ed	0.0061038644
210	0x3c05d70e	0.008168949
211	0x3cafe344	0.021470673
212	0xbb5c379c	-0.0033602482
213	0x3c8f0b9b	0.017461589
214	0x3cf8935d	0.030343706
215	0x3ae0cc6a	0.0017150764
216	0xbcbddbfe	-0.02317619
217	0xba44e4ed	-0.0007510919
218	0x3c3e2a09	0.011606702
219	0xbc7a0887	-0.015260822
220	0xbc3cdb48	-0.01152689
221	0xbc155136	-0.0091136005
222	0x3ca02a6b	0.019551476
223	0x3aa89332	0.001286125
224	0xb8ec131e	-0.00011256918
225	0x3c038da1	0.008029372
226	0xbc3d2e07	-0.011546618
227	0x3c610b0f	0.013735547
228	0xbd5af269	-0.053453837
229	0xbcc6e548	-0.024279252
230	0x3b06a81b	0.0020546976
231	0xbd0b22ab	-0.03396861
232	0xba24f70c	-0.00062929164
233	0xba5c9973	-0.00084151997
234	0x3be1a362	0.006885932
235	0xbbc55263	-0.006021784
236	0xbcd7d782	-0.02634788
237	0xbc61ddb7	-0.013785771
238	0xbd1c48b1	-0.03815526
239	0x3d0c7993	0.03429563
240	0xbcf1ad85	-0.029501686
241	0x3cc2f6de	0.023799356
242	0x3b9fd18a	0.004877274
243	0x3bf4c57f	0.0074698324
244	0x3c0a0857	0.00842484
245	0x3ce58545	0.02801765
246	0x3d0bd3b8	0.034137458
247	0x3c41c6f1	0.0118272165
248	0xba81ecd4	-0.0009912499
249	0x39df025c	0.00042535632
250	0xbbd097fc	-0.006365774
251	0xbc1a3f68	-0.009414531
252	0xbc3d52c2	-0.0115553755
253	0x3d0c196c	0.03420393
254	0x3c2e14f1	0.01062511
255	0x3a64bdf3	0.00087258144

action_model._continuous_distribution.mu.bias f4 [2]
0	0xbbb512e8	-0.0055259354
1	0xbc64e310	-0.013970152

onnx::Div_51 f4 [8]
0	0x3f4b86ab	0.7950236
1	0x3f554396	0.8330625
2	0x3dfb4d94	0.12270656
3	0x3d9248b3	0.071427725
4	0x3de51ea1	0.111874826
5	0x3f1fba19	0.6239334
6	0x3ec87986	0.39155215
7	0x3f24ae83	0.64328784
