Assets/results/BalancingBall/BalanceBall/BalanceBall-7265.onnx (onnx, 75559 bytes, 8 tensors)

network_body.observation_encoder.processors.0.normalizer.running_mean f4 [6]
00000000: f1f3 753f 6639 543f 9c55 8dbb 89a9 98bd
00000010: 2bf7 87bb 4c09 ab3c
0.9607535 0.82900083 -0.004313184 -0.07454211 -0.0041493378 0.020878457

network_body._body_endoder.seq_layers.0.weight f4 [128, 6]
00000000: 0a16 2e3e 766b bdbd 69b9 e8be 7201 a0be
00000010: e3ac 10bf e65b ea3d 22aa 0b3e 5c8e ac3e
00000020: 9ac2 f6bd 0955 473c 8e96 c83e 42a7 58bc
00000030: 39d9 093e 5a4d b53c e8bc 8d3e d880 38bd
00000040: b561 12bf 25e4 8cbe c953 aebe dc7f b6bd
00000050: 768f aabd 588a 48bd f6ee 0cbf 3620 82be
00000060: 0ce5 143e dfdb 903e 056e efbe b121 10bf
00000070: 696a a33e bed0 4e3d f14e ba3e 1994 40be
00000080: 04eb 70bc e13f 3e3d 3693 3d3e 4b94 273e
00000090: 0dcc 86bf 3d07 abbe c21b 25be bcaf d83e
000000a0: a9cd a3be d032 5c3e 168f 163e 4d1d ac3c
000000b0: 78bf 1ebd a7e8 823e e112 573d fabe 09be
000000c0: d158 42bf 829e e23c e4ff 383d 064f 0f3d
000000d0: cf90 033e d6e3 1dbf 49bb 63be a28a 293f
000000e0: f3c4 84be 0546 163f d0b8 d13e 4754 1ebf
000000f0: ebbd 463f 7a76 113c e956 4abe a71e 393e
00000100: b4b6 3fbf e2e5 cfbe 428b 543e 9fb3 7bbf
00000110: ae36 95be 4318 e73d 0451 69be 9b15 82be
00000120: 0f52 413e 9b1e 473f e595 803e d8e5 0ebf
00000130: 24b5 0bbe 18b7 7dbe 6040 b7be 77f3 013e
00000140: bb34 a7bd f3b9 5bbe 51ab 0e3f b925 333f
00000150: 4a08 163f 3de2 39be 6f26 41be 2623 34be
00000160: a42e d9bc 40c0 1e3d 05ee 47be 022b 713e
00000170: dd8d 03be cccc 8e3e 32a6 293f 4678 403e
00000180: c9af a5be be28 abbe 8f05 63bd 042a 5ebe
00000190: c6b9 cb3e 1da8 a93b 07bd ba3e cdb6 f3be
000001a0: e031 bfbd 08e0 1f3f 0cd8 f43e f194 06be
000001b0: 9c27 c1be 9e36 27bd d360 e4be 2063 87be
000001c0: e534 93be 3a0e 6cbe b6ac d8be fcc9 debe
000001d0: c00a 0abf b8ae 80bf e2d5 bcbe 01fc 0a3e
000001e0: 0884 f83d 89e9 183e f242 8a3e a44a 6a3d
000001f0: c18b a5be d78a 8bbe c131 433c 57e8 093f
00000200: b839 e8be 43d4 aabe c767 98be de57 443e
00000210: 605f 0f3e 4863 dd3c ea27 b9bd dc8d ed3e
00000220: 95b7 22bf e642 2d3c 8597 13bf bba2 6bbf
00000230: 592e 653d 4faa 0abe 3325 07be 1aab 74bd
00000240: 1009 13bf 769a 043e 83f5 9abe da0d a1be
00000250: f960 1abe feaf f5be 4250 b8be 8de6 e03e
00000260: 71f0 e63e 5a88 7c3e 84f1 e5bd 66b7 37bf
00000270: a276 60be 425b 233e 2cdd abbd ca04 debd
00000280: 6f7d 70be 206f 50bf 93e4 26be 3cbc 1b3f
00000290: 8111 4c3f cb1a f1bd 0dfe f2be f713 f7be
000002a0: 0f33 ecbc 8ef0 bbbd 9c95 48bf 7f04 1ebe
000002b0: 9bfd 823f 9c35 9a3e 5605 9cbe 09ac 1ebc
000002c0: d278 e93d f02b f0be 0e3b a6be 16cf 34bf
000002d0: 224b 4bbd b489 cb3e 54f8 8bbe 68ff 6c3d
000002e0: 1bf2 fc3e 1924 6f3e e7fa c7bd 0366 993e
000002f0: 580d 6b3e e661 0a3f 40cc 083f b799 053f
00000300: 7217 57bf 1fc2 ebbe 60a7 9e3e 3447 e4bd
00000310: b179 323e 062a e73e 0d12 063e df31 10be
00000320: 43b4 313f 6676 393d a435 d03e 7a34 57bf
00000330: 16a5 883e e872 233e c155 11bf bcfd 5bbe
00000340: 9634 333e 18c7 bd3d 8af4 f43e b684 d4bd
00000350: 1b47 253f 8aab b53e f4f1 9b3e 1e60 64bf
00000360: 274d 6fbf 51ee 303e da75 093d 75aa a1be
00000370: 34a5 11bf 555c ec3e d3ee 20bf f805 373e
00000380: 4d5d 2cbf aa87 f2bd 9500 df3e 7d66 183f
00000390: c5c4 46bf c2d5 043e 12e9 5e3e 20fa c33d
000003a0: b027 703d 7b14 313f 04a9 36bf f524 8a3e
000003b0: e005 a7be ed4f 27bf de9a 24be 219f 33bd
000003c0: ae6c 14be 1472 a6be d885 71be 4936 b13e
000003d0: a595 f1bc 485f a13e 88af 573e d844 86bf
000003e0: a291 73be eb31 f73d 2430 bf3d 086d 983e
000003f0: 33e3 05be aac2 cabc cac4 f8bd 03f6 9c3e
0.17000595 -0.09249012 -0.45453957 -0.31251103 -0.56513804 0.114433095 0.1363912 0.33702362
-0.12048836 0.01216627 0.39177364 -0.013223471 0.1346177 0.02213161 0.27683187 -0.04504475
-0.5718034 -0.2751781 -0.34048298 -0.08911106 -0.08328144 -0.04896006 -0.55052125 -0.254152
0.145405 0.28292748 -0.46763626 -0.5630141 0.31917122 0.05049204 0.36388353 -0.18806495
-0.01470447 0.04644764 0.18513188 0.16365163 -1.0531021 -0.3340396 -0.1612387 0.42321575
-0.31992844 0.21503758 0.1470302 0.021010065 -0.038756818 0.25568125 0.05250824 -0.13451758
-0.75916773 0.027663473 0.04516591 0.034987472 0.12848209 -0.61675775 -0.22239412 0.6622716
-0.2593151 0.5870059 0.40961313 -0.6184735 0.7763354 0.008878345 -0.19759716 0.18078099
-0.7488816 -0.40605074 0.20756248 -0.98320955 -0.2914328 0.112839244 -0.22784811 -0.2540711
0.18878959 0.77781075 0.2511436 -0.55819464 -0.13643318 -0.24776876 -0.35791302 0.1269053
-0.081643544 -0.21457653 0.5573016 0.69979435 0.586064 -0.1815271 -0.18862318 -0.17591533
-0.026511498 0.038757563 -0.19524391 0.23551562 -0.12847085 0.27890623 0.6626922 0.1879588
-0.32360676 -0.3342952 -0.055425223 -0.21695715 0.3979017 0.0051775114 0.3647234 -0.47600403
-0.09335685 0.6245122 0.4782108 -0.13142754 -0.37725532 -0.04082357 -0.4460512 -0.26442814
-0.28751293 -0.23052302 -0.42319268 -0.43513477 -0.53922653 -1.005332 -0.3688193 0.13572694
0.12134558 0.14932837 0.270042 0.05720009 -0.32333186 -0.27254364 0.011913718 0.5387015
-0.45356536 -0.33365068 -0.29766676 0.19174144 0.14001226 0.02702488 -0.09040816 0.46397293
-0.63561374 0.010575032 -0.57653075 -0.9204518 0.055952404 -0.1354153 -0.13197784 -0.059733488
-0.57435703 0.12949547 -0.30265436 -0.3145588 -0.15076055 -0.47985834 -0.35998732 0.43925896
0.45105317 0.24661389 -0.11227706 -0.7176422 -0.21920255 0.15952781 -0.083917946 -0.10840757
-0.23485349 -0.81419563 -0.16298132 0.608341 0.7971421 -0.117726885 -0.4745945 -0.4825742
-0.02883294 -0.091767415 -0.78353286 -0.15431403 1.0233644 0.30119026 -0.3047282 -0.009684571
0.11399998 -0.46908522 -0.3246693 -0.7062849 -0.0496322 0.39753497 -0.27337897 0.057860762
0.49403462 0.23353614 -0.09764653 0.2996064 0.22954309 0.5405563 0.5343666 0.52187675
-0.8402015 -0.4604654 0.30987072 -0.111463934 0.17429234 0.4514925 0.13092823 -0.14081524
0.6941568 0.04527893 0.40665925 -0.8406445 0.2668845 0.15961802 -0.56771475 -0.2148351
0.17500529 0.0926649 0.47842818 -0.10376875 0.64561623 0.35482436 0.30458033 -0.89209163
-0.934771 0.1727841 0.033559658 -0.3157536 -0.56892705 0.46164194 -0.62864417 0.1787337
-0.67329866 -0.11842282 0.43555132 0.59531385 -0.77643996 0.12972167 0.21768597 0.09569192
0.0586316 0.69171876 -0.7135165 0.2698132 -0.3262167 -0.6535633 -0.16074702 -0.04385293
-0.14494583 -0.3250891 -0.23586214 0.3461173 -0.029490301 0.31518006 0.21063054 -1.048976
-0.23786023 0.12070068 0.09335354 0.29770684 -0.13074951 -0.024751026 -0.121469095 0.30656442

network_body._body_endoder.seq_layers.0.bias f4 [128]
00000000: 0000 0000 0000 0000 0000 0000 0000 0000
00000010: 0000 0000 0000 0000 0000 0000 0000 0000
00000020: 0000 0000 0000 0000 0000 0000 0000 0000
00000030: 0000 0000 0000 0000 0000 0000 0000 0000
00000040: 0000 0000 0000 0000 0000 0000 0000 0000
00000050: 0000 0000 0000 0000 0000 0000 0000 0000
00000060: 0000 0000 0000 0000 0000 0000 0000 0000
00000070: 0000 0000 0000 0000 0000 0000 0000 0000
00000080: 0000 0000 0000 0000 0000 0000 0000 0000
00000090: 0000 0000 0000 0000 0000 0000 0000 0000
000000a0: 0000 0000 0000 0000 0000 0000 0000 0000
000000b0: 0000 0000 0000 0000 0000 0000 0000 0000
000000c0: 0000 0000 0000 0000 0000 0000 0000 0000
000000d0: 0000 0000 0000 0000 0000 0000 0000 0000
000000e0: 0000 0000 0000 0000 0000 0000 0000 0000
000000f0: 0000 0000 0000 0000 0000 0000 0000 0000
00000100: 0000 0000 0000 0000 0000 0000 0000 0000
00000110: 0000 0000 0000 0000 0000 0000 0000 0000
00000120: 0000 0000 0000 0000 0000 0000 0000 0000
00000130: 0000 0000 0000 0000 0000 0000 0000 0000
00000140: 0000 0000 0000 0000 0000 0000 0000 0000
00000150: 0000 0000 0000 0000 0000 0000 0000 0000
00000160: 0000 0000 0000 0000 0000 0000 0000 0000
00000170: 0000 0000 0000 0000 0000 0000 0000 0000
00000180: 0000 0000 0000 0000 0000 0000 0000 0000
00000190: 0000 0000 0000 0000 0000 0000 0000 0000
000001a0: 0000 0000 0000 0000 0000 0000 0000 0000
000001b0: 0000 0000 0000 0000 0000 0000 0000 0000
000001c0: 0000 0000 0000 0000 0000 0000 0000 0000
000001d0: 0000 0000 0000 0000 0000 0000 0000 0000
000001e0: 0000 0000 0000 0000 0000 0000 0000 0000
000001f0: 0000 0000 0000 0000 0000 0000 0000 0000
0.0 0.0 0.0 0.0 0.0 0.0 0.0 0.0
0.0 0.0 0.0 0.0 0.0 0.0 0.0 0.0
0.0 0.0 0.0 0.0 0.0 0.0 0.0 0.0
0.0 0.0 0.0 0.0 0.0 0.0 0.0 0.0
0.0 0.0 0.0 0.0 0.0 0.0 0.0 0.0
0.0 0.0 0.0 0.0 0.0 0.0 0.0 0.0
0.0 0.0 0.0 0.0 0.0 0.0 0.0 0.0
0.0 0.0 0.0 0.0 0.0 0.0 0.0 0.0
0.0 0.0 0.0 0.0 0.0 0.0 0.0 0.0
0.0 0.0 0.0 0.0 0.0 0.0 0.0 0.0
0.0 0.0 0.0 0.0 0.0 0.0 0.0 0.0
0.0 0.0 0.0 0.0 0.0 0.0 0.0 0.0
0.0 0.0 0.0 0.0 0.0 0.0 0.0 0.0
0.0 0.0 0.0 0.0 0.0 0.0 0.0 0.0
0.0 0.0 0.0 0.0 0.0 0.0 0.0 0.0
0.0 0.0 0.0 0.0 0.0 0.0 0.0 0.0

network_body._body_endoder.seq_layers.2.weight f4 [128, 128]
00000000: 734b c9bd 15e7 cd3c 695a bb3d c469 9fbc
00000010: a982 f53c b511 98bc 1f47 aabd 42e4 193e
00000020: d5ad 50be 7558 68bd e60f 113d 153e be3d
00000030: 5c18 7ebd 9f02 823d c965 2f3d a4ed 85bd
00000040: 12e9 f7ba 6be2 bdbd e03c 133c e6f9 9d3a
00000050: 7543 323e fb21 213d d537 0dbd 45c8 e73c
00000060: 4df9 043a 2fef b2bd 42b9 68bc 4e8f 11bd
00000070: bb07 cdbc 06f9 323e 6408 293d 35e2 a63d
00000080: b010 6abd 2eba ab3d 3c1b 7abc 46c9 d53d
00000090: 3b89 56be 59ca 043e 59fd ddbc a244 dcbd
000000a0: 83aa 90bd 5f6b ce3d 739d 25be 2eaa d63d
000000b0: 0ffe 97bd 7bad d3bd 9d93 ba3b bf15 a53d
000000c0: dcef 23bd 180a 873d 63f5 25bd ab73 fbbb
000000d0: 7469 ca3d bc3d cd3d 2ed0 bc3d 8723 16be
000000e0: ff23 ad3d 1cef a33d d6fa 723d be6f 8b3c
000000f0: c7b2 b43d 4544 2abe 2568 dcbc aa3d 91bd
00000100: fc31 5cbd e10a 8ebc ae58 dc3d 6885 9ebd
00000110: aebd 82bd a652 20be a103 81bd 86a9 71bd
00000120: 627c 8dbd 68ce 573d ce9a 70bd ea87 df3c
00000130: b50a 78bd 6e4f 68be 312d 173c 0d5c cdbd
00000140: e54d e5bd 3985 373d 5993 b73d 65a7 52bd
00000150: 8bf6 2dbd 2fce 8ebd a3e3 153d ef2f c73c
00000160: 6130 d9bd 8819 dabd bad6 663d ecd0 1c3e
00000170: b70c 52bd 31e9 b63d 8682 3ebd ca44 cf3d
00000180: 73a3 edbc 693c 30bc 2588 edbd 0232 b93c
00000190: 7889 c1bd bdfb c13d 7d12 e13c bf10 0ebe
000001a0: fd2b c83c a41e 573d 331f 6e3d 8b44 9ebd
000001b0: 842b 053e cd77 f73b 07f4 a83d 6bed 3d3d
000001c0: 84c8 ffbd 6ebb 98bd a215 46bd feef 2b3d
000001d0: 04f4 e73d 41f6 203e beab 19bd d2e4 723d
000001e0: 4388 8dbc 4b7f be3c c524 293a 4a76 a5bd
000001f0: 7e5f 28bc 020f a9bc d3ca 6f3d 3b56 bdbc
00000200: fab8 103e 585e ca3d b0ce 16be 7ff3 09be
00000210: 8013 3b3d 6928 eebd 3acd 1b3d d5bc 55bc
00000220: 3587 46bd 7dda 353d f5d9 bd3c a602 bfbd
00000230: 2865 b7bc 12b7 3d3e f45b 37bd 12cd c63d
00000240: db9f e0bd 8f1c eebc 2caf 433c 2d60 c1bd
00000250: 2859 023d f240 96bd c12f ed3d a1cb 483d
00000260: 028a a9bd f09e 49bd eee5 7fbd 8da9 75bd
00000270: 1708 c6bd 3fd1 0f3d de26 b53d 7387 c5bd
00000280: b54e 9e3b 74dc 583d d392 f8bd 623d 0abe
00000290: 03e9 0ebc e2de ba3d aa7a a6bc 777f 443e
000002a0: 003f 243d 548b 193e 799e 0c3e 2a95 16be
000002b0: f18e 72bd a4e2 00bc 9cf7 af3d fe5a 66bd
000002c0: a3bf 803d f1e2 2fbd b405 fbbd 9a6a ad3d
000002d0: 0532 fa3d e42e cbbd b0a0 ddbd 6378 ea3c
000002e0: e8d9 b53d 2756 9fbd ba42 80be 483e a13d
000002f0: 7b80 7a3b 9544 85bd 6397 3bbd f1b4 f4bb
00000300: 1c42 463c e31a f13c 3c3f 673d ba9d 2cbb
00000310: 1453 a63d 81ae e6bd 6994 17bc 3f2a e8bb
00000320: 8b7e cbbc bfee ca3b bcf4 04bd bcb3 3e3e
00000330: 5800 79bd a3ef 1abe 7623 c83d 0d08 2e3e
00000340: 614e d43d 3de5 153d a6d3 8a3d 76a9 80be
00000350: 5d8a c63d d551 b73c a128 8abd 22cd ae3c
00000360: cfef 6dbc 3a42 563d e51b 31bd 2ea1 edbd
00000370: 3522 3fbd b690 23bd 41bd 683d 5808 f5bd
00000380: 2e37 b43d 52d2 28bd 97dd 75bd eb24 6f3c
00000390: 6a67 8cbc 8ce8 a0bd 3fe7 b7bd d5fb 8cbd
000003a0: 709c f2bd f091 9c3d 13a9 42bd 0306 02bd
000003b0: 4d55 0e3c c8d4 bfbd 5f91 0bbc b561 a3be
000003c0: 40a4 d23c 0d39 d6bc 1540 4cbe 6501 06be
000003d0: bf69 de3d 85e2 9fbb 94b8 5ebd 0ebb b03d
000003e0: c90e 3bbd 3d8e 9bbd 23d9 cc3b 5239 d43c
000003f0: 075a 34bd 9437 dfbc 1748 4b3e 70a5 4c3d
-0.09828844 0.025134603 0.09148104 -0.019459613 0.02996953 -0.01856313 -0.083143465 0.1502848
-0.20378812 -0.056724984 0.035415553 0.09289185 -0.06203495 0.06348156 0.04282168 -0.06539467
-0.0018914065 -0.092717014 0.008986682 0.0012052625 0.17408545 0.039339047 -0.034477074 0.028293738
0.0005072549 -0.08737027 -0.014204325 -0.035537057 -0.0250281 0.17477807 0.041267768 0.08148614
-0.05714482 0.0838512 -0.015265282 0.104387805 -0.20950787 0.12967815 -0.027098345 -0.10755278
-0.070637725 0.10079073 -0.16173343 0.10481678 -0.07421505 -0.10335823 0.0056938664 0.08060788
-0.04002367 0.06593722 -0.040517222 -0.007673701 0.09883395 0.100215405 0.092193946 -0.1466199
0.08454131 0.08004591 0.059321247 0.017021056 0.088231616 -0.16627605 -0.026905129 -0.070918396
-0.053758606 -0.017339172 0.10759102 -0.07740289 -0.06383835 -0.15656528 -0.0629952 -0.05899956
-0.0690849 0.05268708 -0.058741383 0.027286489 -0.060557086 -0.2268655 0.009227083 -0.10027323
-0.11196498 0.044804785 0.08963651 -0.05142917 -0.04247145 -0.0697292 0.036594044 0.024314849
-0.10604931 -0.10649401 0.056357123 0.15314072 -0.051281657 0.089311965 -0.046511196 0.10120542
-0.029008603 -0.01075659 -0.11598233 0.022606853 -0.09450048 0.094718434 0.027474636 -0.13873576
0.024435038 0.052519456 0.058135223 -0.07727917 0.13004881 0.007552123 0.082496695 0.046368998
-0.12489417 -0.074576244 -0.048360474 0.04197692 0.11325839 0.15718938 -0.0375173 0.05930025
-0.017276889 0.023254057 0.00064523175 -0.080792025 -0.010276673 -0.02063704 0.058543038 -0.023112407
0.14133063 0.09881276 -0.14727283 -0.13471793 0.045672894 -0.116288014 0.038037516 -0.013045509
-0.048468787 0.04439782 0.02317522 -0.09326677 -0.022387102 0.18526867 -0.044765428 0.09707083
-0.1096799 -0.029066352 0.01194362 -0.09442172 0.031823307 -0.07336606 0.11581374 0.04902232
-0.08278276 -0.04922384 -0.062475137 -0.05997615 -0.09669512 0.035111662 0.08845304 -0.096449755
0.00483116 0.052944615 -0.121373795 -0.13499978 -0.0087225465 0.09124543 -0.020322163 0.19189249
0.040099144 0.14994556 0.13732328 -0.14705339 -0.05921835 -0.007866535 0.085921496 -0.05623912
0.06286552 -0.042941038 -0.12256947 0.08467598 0.12216572 -0.09921053 -0.10821664 0.028621858
0.08879453 -0.07780104 -0.25050908 0.07873207 0.0038223553 -0.065072216 -0.04579867 -0.007467859
0.012100723 0.029431766 0.05645679 -0.002633913 0.08121315 -0.11263753 -0.009251692 -0.0070851143
-0.024840614 0.0061930115 -0.03245996 0.1862325 -0.060791343 -0.15130477 0.09772389 0.16995259
0.10366512 0.03659557 0.0677865 -0.25129288 0.096943595 0.022377888 -0.067460306 0.02133805
-0.014522507 0.052309252 -0.043239493 -0.11603008 -0.04666348 -0.03993293 0.05682111 -0.11964482
0.08799587 -0.041216202 -0.060025778 0.014596204 -0.017139155 -0.07856855 -0.089796536 -0.06883971
-0.11846244 0.07645023 -0.047524523 -0.031744014 0.0086873295 -0.09366757 -0.008518546 -0.31910482
0.025713086 -0.02615025 -0.1994632 -0.1308647 0.10860013 -0.004879298 -0.054375246 0.08629428
-0.045668397 -0.07595489 0.0062514707 0.025906239 -0.04403117 -0.027248181 0.19851719 0.04996246

action_model._continuous_distribution.log_sigma f4 [1, 2]
00000000: 0000 0000 0000 0000
0.0 0.0

action_model._continuous_distribution.mu.weight f4 [2, 128]
00000000: a24e 6c3c 0ee1 2dbc ea83 5bbc 73eb 1abc
00000010: f244 e0bb 6e38 38bc 40f1 7c3b 08c7 03bc
00000020: 270d d83b e884 d1bc ef9b 153c 90d4 94bc
00000030: 7f30 a3bc 184a f5bb 1f02 993c d47d 38bc
00000040: bc7a 09bc 7f68 b4bc d186 ae3c bb9a 3a3d
00000050: d34d abbc fb6c 1cba 4241 e73b b7fa 6cbb
00000060: 1db3 f93c 6a00 0f3d 683b 03bc d57f 4d3c
00000070: 12cd e2bc 7e7a 2d3c 68f8 02bd 83e1 a3bc
00000080: ec92 90bc 78e5 bc3a ca33 98bc a7da a03c
00000090: b0d7 d4b9 0394 e8b9 22eb ad3a de03 2d3c
000000a0: 1ae9 a6bb 473e 2d3c c788 abbc 89c0 373c
000000b0: 18bc 36bb d8de 6dbc af7f 193d b011 8d3c
000000c0: bc69 30bd 28d7 73bb 82b6 e43c f337 d3bb
000000d0: fc60 9dbc 663b 3ebb e29d a1bb edc3 823b
000000e0: da42 a23c 67ea d4bc fef4 aa3c 6bcf 183c
000000f0: 854a 2f3c d729 983c 6867 b0bb 0d65 abbb
00000100: 3978 b43c 3115 8f3c 004e 8f3a bf2f 51bb
00000110: 2d09 abbc 5b87 e13c 4b24 9e3c 2909 8d3a
00000120: 2d2e 90bc 17c5 723c 6f3f bf3c 0a2b 67bc
00000130: 4797 6fbc 1d7d 793b 55da cd3b af27 35bc
00000140: 3bae 71bc 3350 cd3c 1349 943c 5b63 483c
00000150: 6753 d43a 036a 0bbd 0a1f b63b 1849 a43c
00000160: c7b9 4d3c 572e a13c 0f3d d4bc 78d2 093d
00000170: 3472 95bb 4392 063d ec28 103c b23c 4ebc
00000180: 378a cabb c23f 4ebb 3d4a 083b 5783 5dbc
00000190: 1bfb 463b d9cd 40bc db0f c4b9 c5d9 213d
000001a0: 259b ae3c 1454 95bc bb38 0abc 8236 f23b
000001b0: 8e93 0cbd 7953 4bbc 5525 d3bc 75b4 ac3c
000001c0: 3b57 6cbc 22ea ca3c eb9f 1e3d 8d5f f039
000001d0: 074d 58bc 91e2 24bc 7eba 1e3c 0b54 da3b
000001e0: f538 313c a7b4 9abb 5c55 a33c 5c87 393b
000001f0: a845 7abc e40e 433b 3def 42bc e3d7 d2bb
00000200: b101 16bc 0fb7 d9bc e5df d53b ab3e fabb
00000210: b47a 303c a3db 0dbd 5656 0dbc 6f47 7b3c
00000220: 8b82 81bc eb93 323b f321 ddbb 759d 1f3c
00000230: bb8a 76ba bf24 2ebb 6c5c 2bbb 595c af3c
00000240: f3cb b5bc 3555 0eba b0a6 5fbc cdc5 24bd
00000250: a17f a9bb a743 34bc d3d5 053c 8597 cb3c
00000260: bc81 123c 46d9 ba3b 2390 52bc 2547 babb
00000270: 8710 253c eca2 29bc d784 1c3a 8975 aa3b
00000280: e2d6 b0ba a0ce 75bc 17de 563c 8809 2fbc
00000290: c001 c8bc 245b 9fbb 764b 4bbc 0799 97bb
000002a0: 14c6 c9bc 57ba e53c c7ea eabc e5ec dd3c
000002b0: c2b5 613c c634 8c3c a2b5 70bc 1255 f8bb
000002c0: 71f7 3dbc fc1e ba3c a3d5 90bc fcc1 bf3a
000002d0: 13cf a0bc 8144 2c3a 835d 09bb 8297 6dbc
000002e0: 994f b73b 122d 613c ca4a edbb 61eb 99b9
000002f0: 1393 c43c 47e2 11bb ca3f 703c 5f2c 783c
00000300: 44ba 0dba c2af 5bbb 9071 6b3c 8fbe 92b9
00000310: 3a0a d43c 8fcf 083c c3c3 d8bb 4eb8 243c
00000320: 0d0d f8bb d031 bfbc 4bfa 14bb 4cdc ae3c
00000330: 1f4e 983c 9a88 e6bc 4aac e93c 8923 9bbc
00000340: 5f6a 1a3b 490f 103d d74c ac3c d7da 133d
00000350: 5ce3 003c 601a e83b 1734 0a3c 0bcc 833c
00000360: 670d ac3a 837f 303c 082c 493c f159 19bb
00000370: 05c9 f63b 32cf ab3c 1856 f0bc ef93 dbbb
00000380: aabf 6dba cf76 603c 84c7 a43c f5f3 893c
00000390: 5f86 343b af16 a83b d522 fe3b 859c a33c
000003a0: 6782 e8bc dad9 37bc a74d cb3c db97 2fbc
000003b0: ff31 13bd 9831 a0bb 80a8 e53b 9d35 f03c
000003c0: 3c66 863b 615c 3a3c 5ff3 433d c2ed 71bc
000003d0: e623 93bc 7a8e 6cbb ba0b ffba 7f6d 12bc
000003e0: 7ed2 ab3b 3828 edba bc65 003c a04d 72bc
000003f0: 8262 3ebb b869 7d3c 3a8d 963c 6b91 fcbb
0.014423044 -0.010612739 -0.01339815 -0.0094555495 -0.0068441564 -0.011243923 0.0038595945 -0.008043058
0.0065933648 -0.02557607 0.009131416 -0.018167764 -0.019920586 -0.0074856393 0.01867777 -0.0112604685
-0.008391079 -0.022022484 0.02130452 0.04555772 -0.020911133 -0.0005967167 0.00705734 -0.003616018
0.030480916 0.034912504 -0.008009769 0.012542685 -0.027685676 0.010588286 -0.03197518 -0.020004993
-0.017648183 0.0014411649 -0.018579382 0.019635512 -0.0004059649 -0.00044360766 0.0013268928 0.010560004
-0.005093706 0.01057393 -0.020939244 0.011215338 -0.0027883109 -0.014518462 0.037475284 0.017220348
-0.043069586 -0.00372071 0.027919058 -0.0064458787 -0.019211285 -0.0029027103 -0.004932151 0.0039906413
0.019807268 -0.025990678 0.020868775 0.009326796 0.010698919 0.018574638 -0.0053834207 -0.005230552
0.022029983 0.01746616 0.001093328 -0.0031919328 -0.020878399 0.027530363 0.019304415 0.0010760176
-0.017600143 0.014817498 0.023345677 -0.014109382 -0.01462347 0.0038068958 0.0062821307 -0.011056825
-0.014751012 0.025062656 0.01810125 0.012230719 0.0016199172 -0.034036648 0.0055578994 0.020054385
0.0125565 0.019675417 -0.025908021 0.033647984 -0.004560733 0.03285433 0.008798819 -0.012587713
-0.0061810273 -0.0031471108 0.0020796203 -0.013520083 0.0030362073 -0.011767828 -0.00037395846 0.03951432
0.021314213 -0.018228568 -0.008436377 0.0073917517 -0.034320407 -0.012410038 -0.025774637 0.021082142
-0.014425094 0.024769846 0.03872673 0.00045847558 -0.0132019585 -0.010063783 0.009688018 0.0066628507
0.010816802 -0.0047212425 0.019938163 0.002830944 -0.015275396 0.0029763514 -0.011897859 -0.006434427
-0.009155677 -0.026576547 0.0065269344 -0.007636865 0.010771442 -0.03463329 -0.008626541 0.015336855
-0.015809318 0.002724881 -0.006748432 0.0097421305 -0.0009404828 -0.0026572195 -0.0026147617 0.02140634
-0.022191977 -0.0005429567 -0.013650581 -0.0402277 -0.0051726853 -0.011002458 0.008168655 0.024852524
0.008942064 0.0057021705 -0.012851748 -0.0056847506 0.010074741 -0.010353785 0.00059707224 0.0052019996
-0.0013491774 -0.0150028765 0.013114474 -0.010683425 -0.024414897 -0.0048631597 -0.012408128 -0.0046263966
-0.024630584 0.028042955 -0.028676404 0.0270905 0.013776245 0.017115008 -0.014691742 -0.0075785005
-0.011594639 0.022719853 -0.017679995 0.0014629955 -0.01962999 0.0006571487 -0.0020960278 -0.014501454
0.0055942056 0.013743656 -0.0072415816 -0.00029357805 0.023995912 -0.0022260116 0.014663646 0.015147298
-0.0005406479 -0.0033521508 0.014370337 -0.00027989267 0.025883783 0.008350267 -0.0066151335 0.010053707
-0.007569915 -0.023339182 -0.0022732194 0.02134528 0.018591939 -0.028141309 0.028524537 -0.018937843
0.0023561937 0.035170827 0.021032734 0.036097374 0.007866707 0.0070832223 0.008435271 0.016088506
0.0013126553 0.010772589 0.012278564 -0.0023399557 0.0075312876 0.020972822 -0.029337928 -0.0067009847
-0.00090693927 0.013700201 0.020114668 0.01683996 0.0027545912 0.005129657 0.007755617 0.019972095
-0.028382493 -0.011221373 0.024817301 -0.0107173575 -0.035936352 -0.0048887245 0.007008612 0.02932244
0.0041015428 0.011374564 0.04783952 -0.014766159 -0.017961454 -0.0036095665 -0.0019458451 -0.008937239
0.0052435985 -0.0018093651 0.007836755 -0.014789015 -0.0029050414 0.0154671 0.018377889 -0.007707765

action_model._continuous_distribution.mu.bias f4 [2]
00000000: 0000 0000 0000 0000
0.0 0.0

onnx::Div_51 f4 [6]
00000000: 5ea8 603f c8be 5c3f 6e52 883e d172 123e
00000010: e2fa 7b3e 32da 1a3f
0.8775691 0.8622861 0.2662539 0.14301611 0.24607423 0.6048919
