Assets/results/BalancingBall/BalanceBall/BalanceBall-499140.pt (torch, 451146 bytes, 44 tensors)

network_body.observation_encoder.processors.0.normalizer.running_mean f4 [8]
00000000: bf22 3a3f 7ba9 fb3e 9e22 6cbd d951 d93c
00000010: c59f cd3c 8c20 673c 18f2 3a3d f316 f3bb
0.7270927 0.4915274 -0.0576502 0.026528286 0.025100598 0.014106881 0.045641035 -0.0074185072

network_body.observation_encoder.processors.0.normalizer.running_variance f4 [8]
00000000: accd aa48 3ba4 7948 6bdb a345 1aa1 ed44
00000010: 657d 9045 ff2e 4a48 90a1 9047 e903 5948
349805.38 255632.92 5243.4272 1901.0344 4623.6743 207035.98 74051.125 222223.64

network_body.processors.0.normalizer.running_mean f4 [8]
00000000: bf22 3a3f 7ba9 fb3e 9e22 6cbd d951 d93c
00000010: c59f cd3c 8c20 673c 18f2 3a3d f316 f3bb
0.7270927 0.4915274 -0.0576502 0.026528286 0.025100598 0.014106881 0.045641035 -0.0074185072

network_body.processors.0.normalizer.running_variance f4 [8]
00000000: accd aa48 3ba4 7948 6bdb a345 1aa1 ed44
00000010: 657d 9045 ff2e 4a48 90a1 9047 e903 5948
349805.38 255632.92 5243.4272 1901.0344 4623.6743 207035.98 74051.125 222223.64

network_body._body_endoder.seq_layers.0.weight f4 [128, 8]
00000000: 8c53 ecbe 511d e13c 0e75 8b3e 2689 fb3e
00000010: c5b4 273e c5f4 93be b2af 19bd 2148 7bbd
00000020: 910f 93be 708c f1bd 69c1 3a3e e56f 8cbe
00000030: 66a6 a5bd a38d 42be 04ad b7bd ec1a 22bf
00000040: 5e48 72bd 0562 1bbf 3111 3e3d fdf1 ab3d
00000050: c26f 30bf 91c9 753e 4a5c ef3c 0462 2e3d
00000060: f71f 603f f56a 5f3d f0ba 40bc b96f 85bd
00000070: bb59 a2bd 1826 8bbc 69dd e6bd 2d44 b13e
00000080: f4ea 58bd 50d6 9fbd a218 93be 3b55 f9bc
00000090: 222c 033e 6ded 473c e6ce 37be adbb b4be
000000a0: 0a8e 52be 83a8 35bf 95e8 c33e 1dbb a9be
000000b0: 34f9 5bbe 3e07 c33e dc70 553e e26c b6be
000000c0: 877a 3c3e 85f2 dc3e 8df2 3cbf 4068 c7bd
000000d0: 84e1 b8be 1c2c adbe 8ac4 ffbe 28b9 37bf
000000e0: 940f a3be f8b0 04bf c5d3 963d 40d1 4c3e
000000f0: 562c 83be 7d0f dc3e 1b3b abbe 3ac5 083f
00000100: 28a7 13bf 71ea 5d3e 898b 2cbe dd99 d73e
00000110: 362f fd3e 7397 353d be9f 9bbd dc3c 003e
00000120: a1ee ccbe db60 eebd 443d 39be 58f6 ab3e
00000130: 1cf2 483e e399 6ebe a0c9 c6be 6766 0e3f
00000140: 5389 393e a977 283f 39c9 22bf 4f60 e93e
00000150: 6348 e3be 529a 453e b141 013f 72b8 793d
00000160: 8961 22be 74db 3c3e 62de 943e 49b9 963d
00000170: 167c 77be b127 4fbe a132 a63e 821e 9dbe
00000180: bf7c 19bf 5cb7 2f3e 9ef3 383e b79c 7dbe
00000190: 55a3 a83e 3bbc 87be 210d e5be 2748 2c3e
000001a0: 82a5 cf3e 13a6 17bf c472 99be d064 33be
000001b0: 8ba8 2cbd fe27 a53c 0c68 dcbc 6bc1 353e
000001c0: a038 073f 22da 903d e88e 993e 5817 003e
000001d0: 5d34 373e 013b 99be 5da5 0dbe 74b4 103f
000001e0: 855b acbe cf71 d6be cf1d a33d 3ce8 d0be
000001f0: f4f2 013f cf9b eabd 94ae a03d 52d3 38be
00000200: 0957 8e3e b823 e03e 2769 e43d a052 9d3e
00000210: 12e0 a63e c8e2 af3e ce30 573e b39d eb3d
00000220: a1a1 0abe 80cc af3e 7c34 513e 0164 a93e
00000230: 3165 823e 5f54 09bf 72e5 a63e e1d3 cc3e
00000240: a44f 233f 98f7 9e3b a49c 9e3e 89bc bebd
00000250: 51a8 993e 3ca0 023e 3307 323e 5ef3 833d
00000260: 5485 323b 6161 bfbe 1857 06bf 2208 3b3c
00000270: 0ef3 853e 8882 a53e b5cb d5be 24dd bf3d
00000280: b94b 943e f848 2bbe 6fec 4e3e bc0e e8be
00000290: ae47 4cbd 002e 16bf 1a88 f1bc a1e0 a83e
000002a0: 5aaf ec3e 19d5 1d3e cc2d a23e c388 3a3e
000002b0: 0893 573e c94b 533d 5570 df3c f1fa 1f3f
000002c0: 71ea 4e3e fc7d 12bc be91 80be 1b92 2bbd
000002d0: 4d23 233d 3985 823d c5e2 ac3d 2d60 733d
000002e0: 106b 62bb 23f1 293f cd64 0dbe c935 923e
000002f0: 4bc4 8e3e ea08 08be 461c 233d 3fe9 afbd
00000300: d7f7 d43c a132 bd3e c3e6 0c3e 4a91 a93e
00000310: 10e7 98be f03e 1a3e 0e2c 283e 384d 3abd
00000320: 1701 fb3e ebd6 aabe 5d4a b53e 64d1 5c3f
00000330: 255f 58bf 51ca 95be 20c9 c13d e66f 303f
00000340: c92a da3d cebc c23c 44cc c3bd 2bdc 773e
00000350: 301b d13e 4663 a83e dcc4 5ebc 8114 47bd
00000360: ef15 15be dfc6 9b3e b7cf c6be b02d a53d
00000370: 1dc2 c6be 7f27 8ebe cca0 f63e 706a b33e
00000380: f2a3 f2bd 57e3 efbd 2c25 5bbf f26b 02be
00000390: 206b 173e ed72 b1bd 5120 cabc a29c c6bd
000003a0: 0527 8abe 02d8 2abf a82a 953c 925d 2d3f
000003b0: 9ffe db3d a0f2 0ebf 5db6 f6be f305 8f3d
000003c0: 3b36 a23c ecd1 9fbd 6ce4 673e 7b6d edbd
000003d0: e18d 8e3e a2e6 043f 2756 5cbd cfde 7cbc
000003e0: 9865 4cbf 7a57 103f 4975 bb3e 6c35 dc3e
000003f0: 62d2 cfbe f704 1dbe a94f fabe 5d73 8a3d
-0.4615749 0.0274798 0.27237743 0.49128073 0.16377552 -0.28897682 -0.03752107 -0.061348084
-0.28722814 -0.117943645 0.18237843 -0.2742912 -0.080883786 -0.18999343 -0.08968547 -0.6332233
-0.059151046 -0.6069644 0.046403114 0.08395765 -0.6892053 0.24002673 0.029218812 0.042573944
0.87548774 0.05454536 -0.011763319 -0.0651545 -0.07927271 -0.016985938 -0.112726994 0.34622326
-0.052958444 -0.07804549 -0.2872973 -0.030436149 0.12809804 0.012202603 -0.17950019 -0.35299435
-0.20561996 -0.70960253 0.38263384 -0.3315057 -0.21481782 0.38091463 0.20843834 -0.35629946
0.18406115 0.43153778 -0.73807603 -0.09736681 -0.36109555 -0.33822715 -0.49954635 -0.717669
-0.31847823 -0.5183253 0.073646106 0.20001698 -0.25619763 0.42980567 -0.3344353 0.53425944
-0.57676935 0.21671464 -0.16850103 0.42109576 0.49450082 0.044333886 -0.07598828 0.12523216
-0.4002581 -0.116395675 -0.18089777 0.33586383 0.19623607 -0.2330089 -0.38825703 0.55625004
0.18118791 0.65807587 -0.6358829 0.4558129 -0.44391164 0.1929715 0.5049086 0.060966916
-0.15857519 0.1844309 0.29075915 0.07359559 -0.24168429 -0.20229985 0.32460502 -0.30687338
-0.5995597 0.1715979 0.18061683 -0.24766813 0.32937112 -0.26510796 -0.4473658 0.16824399
0.4055596 -0.59237784 -0.29970372 -0.17518926 -0.042152923 0.020160671 -0.026905082 0.17749564
0.5282078 0.070728555 0.2999184 0.12508905 0.17891069 -0.2992783 -0.13832612 0.5652535
-0.33663574 -0.41883704 0.0796467 -0.4080218 0.5076134 -0.114554994 0.07845798 -0.18049362
0.27800778 0.4377725 0.11152869 0.307271 0.32592827 0.34352708 0.21014711 0.11504688
-0.13538219 0.3433571 0.20430177 0.3308411 0.25467828 -0.53644365 0.32596928 0.400054
0.63793397 0.004851293 0.30978882 -0.09313304 0.30011228 0.12756437 0.17385559 0.06442903
0.0027240114 -0.37378982 -0.52476645 0.011415513 0.26162 0.3232615 -0.4175698 0.09368351
0.28964022 -0.16727054 0.2020738 -0.4532374 -0.049873047 -0.5866394 -0.029483844 0.32983878
0.46227533 0.15413322 0.31675565 0.18216233 0.21052182 0.051585946 0.027275244 0.6249228
0.2020662 -0.00894117 -0.25111192 -0.041887384 0.039828587 0.063730665 0.0844169 0.059417892
-0.0034548678 0.6638357 -0.13807984 0.2855666 0.27884135 -0.1328465 0.039821886 -0.0858941
0.025997085 0.3695269 0.13759904 0.3311866 -0.29863787 0.15063071 0.16423056 -0.045483798
0.4902427 -0.33367094 0.35408297 0.86257005 -0.8452018 -0.29255918 0.0946219 0.68920743
0.10652692 0.02377167 -0.09560445 0.24205081 0.40841055 0.3288824 -0.01359674 -0.04860354
-0.14559148 0.30425164 -0.3883035 0.08065355 -0.38819972 -0.27764508 0.48169553 0.35042143
-0.11847676 -0.117132835 -0.85603595 -0.1273649 0.14786959 -0.086644985 -0.024673613 -0.09697844
-0.26982895 -0.6673585 0.018208817 0.677209 0.107419245 -0.55838966 -0.48186007 0.069835566
0.01980125 -0.07803711 0.2264573 -0.11593147 0.2784262 0.5191442 -0.0537931 -0.015433981
-0.7984252 0.5638348 0.3661292 0.43009508 -0.40590197 -0.15333925 -0.488889 0.06760285

network_body._body_endoder.seq_layers.0.bias f4 [128]
00000000: 75cc 4c3a dd01 0abd 69c7 f5bc f6bc b0bc
00000010: 7aa3 7fbd 11c0 ebbc 1b2b 623c 5aed 03bc
00000020: 4a27 4f3b a99a 28bd bcad 793c 7292 b4bc
00000030: 7436 dcbc 6e73 4cbc c90f debc ffb8 de3b
00000040: 4dfa b5bb b8f7 393b cf98 b4bc f5dc 66bc
00000050: 1429 76bd e943 83bc d255 e3bb 0fd8 7f3c
00000060: 0d92 99bb a4c0 9dbd 36d6 67bc 1f48 1cbd
00000070: c1b7 483c 1d70 41bd 5322 983a 762b 24bd
00000080: 94a3 d53a 3a3d 96bd 8de4 313c ad1a b53c
00000090: be44 69bd 451e 103d 5282 abbc e138 f63b
000000a0: da51 33bc e99f 8f3c c40d 4cbb 9827 1bbd
000000b0: 1f50 1abd 2702 9b3c be34 16bd 2d35 feba
000000c0: 81ed 963c 5d38 34bd b7f9 94bc 8938 e8b9
000000d0: d68f aa3c b2c2 87bb 89b0 8abc 008c 553a
000000e0: 4c27 8e3b 6d1f 493c 4c4e eb3a 7d06 93bc
000000f0: f111 a1bc d761 8dbc 99b1 89bc 9388 04bd
00000100: fc78 a4bc 902d 9fbc 56a1 d23b 1d6c 71bd
00000110: d079 90bd a8e3 43bb a983 dbbb 084e 47bd
00000120: cc1e 88bc eedf ba3c 7daa 44bd 34cc 23bc
00000130: 7154 023c b4c8 2fbb 1970 4c3b 89c3 403c
00000140: 465e aabc 63ce 083c 978b 63bd 6917 4bbd
00000150: 2b7b 2abd 38be e3bc 1a32 72bd dead 56bd
00000160: d66e c1bc ac8d 0d3d 42a0 89bd 07ee 0f3d
00000170: 283c 473d f621 ee3b ff26 dabb 5c88 06bd
00000180: 0067 5fbd 0cde b7bc 666b 5fbb a090 14bd
00000190: 9889 4abc 7c26 a9bc 725f e2bb 5f39 bf3c
000001a0: e79c e6bc 6b21 90bd 0d35 173d 587f 84bb
000001b0: 12ab 21bc 80eb e0bc a50a af3b 9a3b 86bd
000001c0: 0b1a 03bb 2255 4f3c bde5 1c3b e49a 8539
000001d0: 0c52 9ebc 2278 b23c 2c7a f3bc 12f2 e2bc
000001e0: a75a d13c 4067 abbd a5c1 89bc 60c8 dcbc
000001f0: c466 a5bb 2aea e1bc 5f19 cf3c a065 9d3c
0.0007812449 -0.033693183 -0.030002313 -0.021574479 -0.062411763 -0.028778108 0.013804222 -0.0080521945
0.0031609111 -0.04116312 0.015239175 -0.022042487 -0.026881434 -0.012478692 -0.027107136 0.0067969556
-0.00555352 0.0028376412 -0.022045521 -0.014090766 -0.06009777 -0.016023593 -0.006937721 0.015615477
-0.0046866 -0.07702759 -0.014150193 -0.038154718 0.012250842 -0.04722606 0.0011606909 -0.04008051
0.001629936 -0.07335897 0.010857713 0.022107447 -0.056950323 0.035185117 -0.020936165 0.0075141047
-0.010944808 0.017532306 -0.0031136135 -0.037879556 -0.037674066 0.018921925 -0.036671393 -0.001939451
0.018423798 -0.043999065 -0.01818548 -0.0004429261 0.02082054 -0.0041430825 -0.016929882 0.0008146167
0.0043381806 0.012275559 0.0017952411 -0.01794743 -0.019661875 -0.017258568 -0.016808318 -0.03235681
-0.020077221 -0.019430906 0.006427924 -0.058940995 -0.07054484 -0.0029890332 -0.0066990447 -0.0486584
-0.016616248 0.022811856 -0.048014153 -0.009997416 0.007954703 -0.002682251 0.0031194745 0.011765369
-0.020796906 0.008349988 -0.055553045 -0.049582873 -0.04162137 -0.027800664 -0.05912981 -0.052411906
-0.023612421 0.034558937 -0.0672002 0.03513911 0.048641354 0.007267232 -0.0066574807 -0.032844886
-0.054541588 -0.022444747 -0.0034091114 -0.036270738 -0.0123619065 -0.020648234 -0.0069083506 0.023342786
-0.028150989 -0.07037624 0.036915828 -0.004043501 -0.0098674465 -0.027456045 0.005341845 -0.06554337
-0.0020004536 0.012654575 0.0023940646 0.0002548314 -0.019326232 0.0217858 -0.029721342 -0.027703319
0.025555922 -0.08369303 -0.01681597 -0.026951015 -0.005047651 -0.027577478 0.025280653 0.019213498

network_body._body_endoder.seq_layers.2.weight f4 [128, 128]
00000000: 8e48 fabd c638 f0bd 8758 2fbd 8c6a e3bc
00000010: c551 aebd 3a90 0d3d 2644 11be 322a 793c
00000020: 6c77 5c3b a8a4 c7bd c643 3fbe cd8c 12bc
00000030: d796 cabd 66dc f2bd 09ce ab3d 32d6 b6bc
00000040: 5d03 35bd a3ae 503e 9282 f73d 28f7 b43d
00000050: a3aa a53d 7d33 b6bd 4045 03be 6b16 793d
00000060: 995e aebd 5d8a 90bd 9fb1 2fbd 9435 ea3d
00000070: 4f08 3abc 188c 46bc ec7e 9d3d b288 853d
00000080: 6abd 073e b566 e9bd 516d 82bd 5c96 863e
00000090: ce81 93bc 98dc 183e f9d4 afbc 6dc7 e2bd
000000a0: ce1c 593c 8acc ed3d 1ca4 30be f367 a93c
000000b0: dea4 58be 2d1c 0a3d 1dd1 4dbd 657b df3d
000000c0: 347a 96bb 60ac f7bd aa3c 2a3e a4cf 933d
000000d0: e3c0 093e 2a32 54bc f9e3 ae3d e449 b2bc
000000e0: 7d46 863d dd9a 2dbe 01d6 223e 6d0d 313d
000000f0: fe2c ebbc a87d b83c c6aa c23c fdde c63d
00000100: 7122 4fbd 926b 963d 9a7e 41be 2d82 90bd
00000110: 3603 c53d bea2 24be aa1b 3c3d b41b 113d
00000120: 2095 abbc 2354 273d f993 493e 25a6 f6bc
00000130: b399 39bd f0a4 02be 278c a63d df2d fbbd
00000140: 15ea 17be 8cf4 fb3d 745b 683c d7c9 5abd
00000150: d65d 12be f260 f8bd 2be5 8bbd 5e80 31bd
00000160: dfc4 613d 6f54 9fbd 3ff4 4dbe d1ec 0f3e
00000170: ca3a 3bbb 7632 863d 3b28 e73d 448e 60bc
00000180: f0c4 f3bb fdce 3b3d 2b8c 20be fe52 d23c
00000190: 8b8e 243c dce8 fc3c a3e7 44be 81bc edbc
000001a0: 2cfe 9c3d e062 f13d ade2 ed3c d519 8b3c
000001b0: 4d2c 103e 54a5 07be ef3f 5cbc b18c 433c
000001c0: ebf4 353d 3405 d3bc 3508 eabd 1e0b 1a3d
000001d0: 1b5f cbbc 8d1d 12bd b713 773c b346 b5b9
000001e0: d94e 803d bf3b 3e3d e55b e7bd a130 d6bd
000001f0: 67f8 373e 89b5 e83c d277 603b bf01 963d
00000200: 7c0b 62bd 269d 1d3e 804b 0abb fbd9 d5bd
00000210: 5d60 713d 5791 dc3c 27df 053d 16f2 d33d
00000220: 740b 0a3d b9b8 e43d e2d7 b63c 94b1 a5bc
00000230: 0101 f33b 0558 4a3e 192f 8fbd c8d4 53be
00000240: 0af1 e1bd 7fb5 e63c 971d bfbd 74b6 c43c
00000250: d9fe 9bbd 303e d8bd de69 9f3d eb6f 48bd
00000260: f8d0 613d 2489 09be e5a8 d6ba 7946 1dbe
00000270: 45c7 6f3d af21 883c 1513 eebb 6e95 293e
00000280: 7a57 3cbc 4db9 82bc 6dfc 1b3e 969f 093d
00000290: 286a 973b 451f f4bd 6e36 6dbd a100 00be
000002a0: 7d0a 363e ada1 08bd b619 57bd 8b56 253d
000002b0: b8d4 dc3c ef83 613d dc0f 2f3d 633b 223d
000002c0: 9484 283e c96a 61bd 8ba5 3a3e 160a 613d
000002d0: e2f3 133e 16e7 ca3c 5b57 7c3d 22ba 83bd
000002e0: e0bf a3bd e4b6 30be f1fe e63d b15a 20be
000002f0: 21f6 c13d 5d02 94bd 0a91 c43d 1edd 273b
00000300: 6a3c c5bd f30e d03d 5091 dd3d 039a 2f3d
00000310: ae29 b2bd c48c 083e 93f0 a63c 3f2f 61bd
00000320: 7da3 753d 27c9 303d 67e2 d2bd eac7 d7bd
00000330: ec35 483d 056e 213d b299 e8bc a4f0 433e
00000340: f494 a73d 2e4e d23d 40f4 953b 1c77 8b3d
00000350: a885 9d3c eb90 d5bd dfb8 ba3d 7611 a6bc
00000360: 264a b83d 25cb 18be 82b5 e7bd de1c 3abe
00000370: bdc6 d5bc 0f4f bd3d 2333 f9bd d962 5cbd
00000380: dab2 e13c 94ea f23c dfc2 4a3d 1949 bebd
00000390: 037a b43d a60f da3d a208 07be cfab f83d
000003a0: a6e6 873c ad36 aa3d 9bc3 69bd c4a2 1fbe
000003b0: 695f 263e dd4c f3bc 5210 383d 54ad 5fbd
000003c0: 7e3b 8ebd 7ec8 d83c 68c7 7cbc fee4 993d
000003d0: f65b a5bb c150 20ba c569 73bd 41dc e4bc
000003e0: ba2a a53c 8883 dc3d f818 8f3d 62f9 edbd
000003f0: 0e7b 35be 034c cc3d c0f6 37be 8108 d1bc
-0.1222087 -0.11729579 -0.042809036 -0.027760766 -0.0851169 0.034561373 -0.14186153 0.015207814
0.0033640517 -0.097482026 -0.18678197 -0.008944702 -0.09892052 -0.11858444 0.083889075 -0.022318933
-0.04419266 0.20379119 0.12085451 0.08836204 0.08089187 -0.08896539 -0.12819386 0.060812395
-0.08514137 -0.07057641 -0.042894002 0.114360005 -0.01135452 -0.012118362 0.07690224 0.06520213
0.1325585 -0.11396543 -0.06368507 0.2628659 -0.018006232 0.149279 -0.021463858 -0.11073194
0.0132514965 0.11611278 -0.17250103 0.02067945 -0.21156642 0.033718277 -0.050248254 0.109122075
-0.0045922045 -0.12093425 0.16624704 0.07217339 0.13452487 -0.012951413 0.08539576 -0.02176375
0.06556413 -0.16953607 0.15901949 0.043225694 -0.028707977 0.022520855 0.023763072 0.097105004
-0.050569955 0.07344736 -0.18895951 -0.07056079 0.09619753 -0.16077706 0.04592482 0.03542681
-0.020945132 0.040851723 0.19685353 -0.03010852 -0.045312595 -0.12758231 0.08132201 -0.122646086
-0.14835389 0.12302503 0.01418196 -0.053415146 -0.14293608 -0.12127866 -0.0683082 -0.04333531
0.05511939 -0.07779776 -0.20112704 0.14055182 -0.0028568977 0.065525934 0.1128697 -0.013705794
-0.0074392483 0.045851696 -0.1567847 0.02567434 0.0100437505 0.030872755 -0.19228987 -0.02902055
0.07665667 0.11786437 0.029038751 0.016980091 0.140794 -0.13246661 -0.013442977 0.011935399
0.044423025 -0.025759317 -0.114273466 0.03760826 -0.024825623 -0.035672713 0.015080384 -0.00034575685
0.06265039 0.046443697 -0.11296824 -0.10458494 0.17965852 0.028406875 0.0034251106 0.07324552
-0.055186734 0.15391979 -0.002110213 -0.10441967 0.05892979 0.026924772 0.032683518 0.103489086
0.03370233 0.111680456 0.022319738 -0.020226277 0.007415891 0.1976014 -0.06991405 -0.20686638
-0.11032303 0.028162716 -0.09331816 0.024012782 -0.07616968 -0.10558736 0.077838644 -0.04893486
0.05513093 -0.13431221 -0.0016377239 -0.15358914 0.058539648 0.016617624 -0.0072654583 0.16560909
-0.011495465 -0.015957499 0.15233012 0.03359946 0.004620809 -0.11920027 -0.057913236 -0.1250024
0.17777438 -0.03335731 -0.052514754 0.040365737 0.026956901 0.055057462 0.042739734 0.039607417
0.16456825 -0.05503348 0.18227212 0.05494126 0.14448503 0.024768393 0.061606746 -0.064319864
-0.079955816 -0.17257267 0.11279095 -0.15659596 0.094707735 -0.07227013 0.095979765 0.0025613974
-0.09630664 0.10159101 0.10818732 0.042871486 -0.08699356 0.13334948 0.020378387 -0.054976698
0.059970368 0.043160584 -0.10297089 -0.105361775 0.04887955 0.039411563 -0.0283936 0.19134766
0.081827074 0.10268818 0.004576236 0.06809828 0.019228771 -0.104280315 0.091172926 -0.020271998
0.08998518 -0.14921243 -0.11313917 -0.18175074 -0.026095742 0.09243595 -0.12167957 -0.053805206
0.027551103 0.029652871 0.04950225 -0.09291286 0.088123344 0.10647516 -0.13186887 0.12142145
0.016589474 0.0831121 -0.05707131 -0.15589434 0.16247334 -0.029699737 0.04493744 -0.054608658
-0.06944941 0.02646279 -0.0154284015 0.0751438 -0.005046363 -0.0006115549 -0.05942704 -0.027937056
0.020161975 0.10767275 0.06987184 -0.116198316 -0.17722723 0.099754356 -0.17965221 -0.02551675

network_body._body_endoder.seq_layers.2.bias f4 [128]
00000000: 7b25 5b3b 3ff6 1e3c ede1 31bc 89e2 febc
00000010: 6317 543c 80a6 373c 6953 1abb a13a a1ba
00000020: 241b 4d3b 0042 88bc bca1 f6bb f03d 91bc
00000030: 320d 313b 5a5b bfbc d483 fabb 7d0b 503c
00000040: c663 183b bb43 72bc 05f0 1ebc efcd 233c
00000050: 62f1 1b3c de43 dd3c 7274 eebc 4ea6 47bc
00000060: 3af7 b9bb 7525 13bd 134c 633c d188 febb
00000070: e908 44bc 4b63 03bc a00d b53b 3c76 90bc
00000080: 4848 b13b 22e0 163c 6a8c 08ba 8721 403b
00000090: 874f 103b d783 063d f4bb 25bd 62c3 8e3a
000000a0: 6b56 afb9 f924 1abd bfd1 2d3c b527 f3bc
000000b0: ad7b 5bbd cdc1 af3c 8f7c 523b 2112 633c
000000c0: 3ceb 47bc 66bc 07bd 2282 cdbc 2eba ffbc
000000d0: a3de 55bd 3592 00bc 8b11 1abc d069 4b3d
000000e0: 2319 3d3b 4e1a 573b a45e d23c 80aa 06bd
000000f0: 7592 f6bb 6045 e4bc 1010 24bc d317 a13c
00000100: d25b 7f3b 79f9 273c 4239 25bc 3fb1 56bc
00000110: a2ad c03a a874 c7bc 1dc8 87bc 61c3 d9bc
00000120: e8ae 08bd f245 d7bc 53f5 d5ba 8391 3bbc
00000130: 91c3 cbbb e6ce 80bc 81a8 74bc 6739 b43c
00000140: 270f 0d3c 90e2 ff3c 822e 11bd 8782 03bd
00000150: 074a ee38 af08 b7bc dadc dbbb ae64 0fbc
00000160: ad9e cb3b 0c34 94bc b8a0 25bd 84b5 c2bb
00000170: 9e81 50bb f0c3 fbbb f8a7 313c cd73 55bd
00000180: 0645 cd3c daa3 86bc 274e 993a 48a5 7dbc
00000190: c929 4fbb a103 85bc c532 133c 6005 3b3c
000001a0: 7ed7 983b e0a1 03bd 14a5 59bb 08b1 d5bc
000001b0: df09 cebc f215 fd3a a54f 073b e32f 0dbb
000001c0: 32ff 92bb a745 6f3b 6eb3 af3c 5a9f 05bd
000001d0: a0a8 afbc 0287 97bc 1b63 22bc b61d 4f3c
000001e0: 51ed 10bc 90c5 07bd ada0 45bb 1ae7 9dbd
000001f0: c8a0 dabc 4350 283d bd9c 58bc d961 e0ba
0.0033439088 0.009702264 -0.010857088 -0.03111388 0.012945029 0.01120913 -0.0023548251 -0.0012300798
0.0031296695 -0.016633034 -0.0075266045 -0.01772973 0.0027015922 -0.02335899 -0.0076451097 0.0126980515
0.002325283 -0.014786656 -0.00970078 0.009997829 0.009517999 0.0270099 -0.02910826 -0.012185646
-0.0056752237 -0.035924394 0.013873118 -0.0077677746 -0.011965015 -0.008019279 0.005525306 -0.017634504
0.005410228 0.009208711 -0.00052089116 0.002931686 0.0022020058 0.032840576 -0.04046245 0.0010891969
-0.00033442987 -0.037632916 0.010609089 -0.02968202 -0.053584743 0.021454716 0.00321177 0.013859303
-0.01220208 -0.033138655 -0.025086466 -0.031216707 -0.052214276 -0.0078473585 -0.009403597 0.049661458
0.0028854094 0.0032822075 0.025679894 -0.032877445 -0.0075247833 -0.027865112 -0.010013595 0.01966468
0.0038964641 0.01025235 -0.010084452 -0.013103782 0.0014700184 -0.024347618 -0.016574914 -0.026582422
-0.03336993 -0.02627847 -0.0016323723 -0.011448267 -0.0062183817 -0.015723657 -0.014932753 0.022000028
0.00860957 0.031235963 -0.035444744 -0.032106902 0.00011362513 -0.022343008 -0.006709677 -0.008752031
0.006213984 -0.018091224 -0.040436476 -0.0059420485 -0.003181554 -0.0076832697 0.0108432695 -0.05211239
0.025057327 -0.016435552 0.0011696265 -0.015481301 -0.00316106 -0.016237082 0.008984272 0.011414856
0.0046643605 -0.032136798 -0.0033209966 -0.026085392 -0.025151191 0.0019308908 0.0020646837 -0.0021543435
-0.004485988 0.0036510022 0.021447863 -0.032622673 -0.021442711 -0.018496994 -0.009911324 0.012641361
-0.008845643 -0.033147395 -0.0030155585 -0.07710095 -0.026687995 0.04109217 -0.013220963 -0.0017119005

action_model._continuous_distribution.log_sigma f4 [1, 2]
00000000: 7ae2 bfbc 081b 5dbd
-0.023423422 -0.053980857

action_model._continuous_distribution.mu.weight f4 [2, 128]
00000000: d033 06bd aeb1 373d ebfd 9f3c 9d76 6fba
00000010: 5b79 14bd be8e 89bd 89ac 9dbb aaf8 39bc
00000020: 9217 1d3d 8293 273c b8c8 1f3c 91b4 cf3c
00000030: 4e88 5b3d 1623 1ebc 42de 32bd c6ea 26bd
00000040: 3f79 473c 3905 1fbc ea82 cebc 4a6f 5d3d
00000050: 5620 4b3d fa4c 62bc e9b6 6b3c 93cb 343c
00000060: 18f1 893b a1bd b93b cd00 8e3c 29e3 5d3c
00000070: f162 fbbc 8e14 83bc 4acf 203c fd8c 383c
00000080: ac55 3c3d 37bb 973c 62e1 54ba d227 c83c
00000090: 75c3 dbbc 735f 4fbd 9732 9dbb 917c 063d
000000a0: 11bc fd39 746a f23b c58d 333c 5143 31bb
000000b0: cf64 ccba e8dd e93b ce6e 36bc 058d 4b3c
000000c0: 5bb7 d7bc 3b5c 423b 8ccc bb3c 3dc1 333c
000000d0: 9432 e13b 8397 323c a95e 2dbc af01 cdbc
000000e0: d9cf 17bd ae6f 05bd a3d8 11bd 21d9 ae3a
000000f0: 9197 813c bcb3 a73b 5af9 9cbc 0735 263d
00000100: 457c 413d 7366 48bb cc22 003d 3e5a 003d
00000110: 133e dbbc 847f 563c 58dc 333d 1332 a03c
00000120: b0bf 213c 2c05 223c 8455 b1bc c091 dcbc
00000130: bbab 9b3c e262 8fbc 7412 5f3b 13f2 553c
00000140: b46a 413d 7ef0 a33c 24a4 a7bc 364b cb3c
00000150: c341 32bc d018 f039 57bc 883d 68ae 17bc
00000160: 80a2 a5bc 1483 273c a908 ec3b d311 14bd
00000170: 4504 0dbd 0b5e 9a3c b03e 37bd 0a98 2dbc
00000180: f0af 17bd 423c 9f3c 196e 603d 7ada a5bb
00000190: cdf1 e0bc 0649 a83c a17b 943c 7d23 00bd
000001a0: b98f eebc 1ec7 083c b4ab 02bd 886a 90bc
000001b0: 92b8 473b 83c9 283d 99be 113d 5ba1 913c
000001c0: 69b6 e8bc 8ad2 89bc 2c61 dc3b aa4e b5bc
000001d0: d975 133d b561 aabb da17 2ebd de32 88bc
000001e0: 14cc 043c 5154 853c 9094 193c f5e7 8c3b
000001f0: 7bfa 113b 02ef e1bc b538 32ba b8b4 0b3d
00000200: c190 12bd aa18 4e3d 17f2 0f3c 037e 1cbb
00000210: 113b ecbc 8cfd 37bd 2601 fcbc e3a1 013d
00000220: 48dd fbbc fb17 113c 5aaf 17bd a676 9c3c
00000230: 2040 d83c 0667 a23c 0e97 233c 379e 563d
00000240: 1d26 c0ba f6ee 7d3d 5140 bcbb 9b15 953d
00000250: a843 0b3d db14 53bd fa04 fa3b e7e7 e83c
00000260: f1b8 483d 1355 5f3b f1d6 d6bb 63d6 6bbc
00000270: fcd3 023c 766b 00bd fa8a 513d a9d7 0b3c
00000280: 8057 4e39 332d 28bd 1bb5 8cbc a977 44bc
00000290: 58aa 183d 00ae 863d 2181 a53c 8d7e b23c
000002a0: 598a 5d3d b35f 6e3b a709 533d bb31 9139
000002b0: abec 943b 22f5 6cbd c77e 7e3b c917 38bd
000002c0: ddfb e63c 052e d13c b8a0 de3c 5b27 533c
000002d0: bf8c 3e3c 01a9 9abc 958d b8bc 8ec0 87bd
000002e0: 239f 2fbd abdd 063d dc3c 853d 3121 fb3c
000002f0: ed65 9b3c 1300 6fbb d8db 1d3d 8dfb 2c3c
00000300: a863 12bd 3719 b7bc b12c 8fbc 9d1e b63c
00000310: 4b29 d4bc d13e 3e3c a2aa 2a3c 5bc8 953c
00000320: d833 043c 7362 cbba 9c57 bbbc d9c3 ed3c
00000330: ca49 82bc 2c82 873b bce7 2bbc 0e70 3bbd
00000340: 9535 173d 5426 77bd 7688 813c 63cb af3c
00000350: f18d fbbc 3dfa 06bc 47ee 0a3d 7138 11bc
00000360: 51ec 7c3d ce08 603c c264 9abb 9ba5 00bc
00000370: 0a4f d4bb 9d0a fc3c 81fe ea3c aba0 6a3c
00000380: 2719 97bd e863 de3a 1d2d 33bc 5f47 23bc
00000390: d54c 31bc ed7f 77bc 6ed3 b0bc e62a 62bc
000003a0: a5a9 4d3c 6e07 893c 45b6 303c 645d 0f3c
000003b0: 3c0a a53c b23f c93b de21 35bc cd1e d4bb
000003c0: 16e5 ba3b 4c58 02bd 2752 2ebd ff0b 8e3c
000003d0: 1fd0 833b 395b 65bc d6d3 ca3b 58bf adbc
000003e0: ff9c e0ba 0135 823c 6d9c 5e3d 4eca a5b9
000003f0: 3bde 81bc 80ee b9bc da8f c2bb a121 8d3b
-0.032764256 0.044847183 0.019530257 -0.0009134801 -0.036248546 -0.06716679 -0.0048118276 -0.01135079
0.038352557 0.01022804 0.009752445 0.025354655 0.053596787 -0.00965192 -0.043668993 -0.04075124
0.012174903 -0.009705835 -0.025208909 0.05406121 0.049591385 -0.013812298 0.014386871 0.011034864
0.004209649 0.0056683575 0.017334366 0.013542929 -0.030686827 -0.016001012 0.009815047 0.011264083
0.04598014 0.018521888 -0.0008120743 0.02443305 -0.0268266 -0.050628137 -0.0047972905 0.03283364
0.0004839604 0.007397944 0.010959093 -0.002704818 -0.0015594008 0.007137049 -0.011134816 0.012423758
-0.026332548 0.0029657024 0.022924684 0.010971365 0.0068724845 0.010900381 -0.010581651 -0.025025217
-0.037063453 -0.03257721 -0.03560699 0.0013339856 0.015819343 0.0051178616 -0.019161869 0.040577915
0.047237653 -0.0030578643 0.031283185 0.03133606 -0.026762998 0.0130919255 0.043911308 0.019555127
0.009872362 0.009888928 -0.021647222 -0.026924968 0.019002786 -0.017503206 0.0034038099 0.013058203
0.0472209 0.020012137 -0.02046401 0.024816137 -0.010879937 0.00045794854 0.06676548 -0.00925789
-0.020219088 0.010224123 0.007203181 -0.03614981 -0.0344279 0.018843671 -0.044737518 -0.010595331
-0.03703302 0.019437913 0.054792497 -0.005061445 -0.02745905 0.020542633 0.018125357 -0.031283844
-0.029121267 0.0083482545 -0.03190203 -0.017628923 0.0030475003 0.0412078 0.03558216 0.017777136
-0.028407292 -0.016824026 0.006725451 -0.022132237 0.03600106 -0.005199636 -0.042503215 -0.016625818
0.008105297 0.016275557 0.009373799 0.0043001124 0.0022274542 -0.027579788 -0.0006798611 0.034107894
-0.03578258 0.05031649 0.008785746 -0.002387882 -0.028836759 -0.044919536 -0.030762266 0.031648528
-0.030745164 0.008855815 -0.037032463 0.019099545 0.026397765 0.019824516 0.009984745 0.05239698
-0.0014659796 0.06199547 -0.005744972 0.072795115 0.03400007 -0.05153356 0.007629988 0.028430892
0.0490045 0.0034077808 -0.0065563847 -0.0143943755 0.007985111 -0.031352483 0.05115793 0.008535304
0.00019678287 -0.04105873 -0.017176202 -0.01199142 0.037271827 0.065761566 0.020203175 0.02178886
0.054087017 0.003637296 0.051522877 0.00027693607 0.0045448146 -0.057850964 0.003883289 -0.04494456
0.02819627 0.02553464 0.027176246 0.012887801 0.011630236 -0.018879415 -0.02252845 -0.06628524
-0.042876374 0.032926243 0.06505749 0.030655475 0.0189695 -0.003646855 0.038539737 0.010558021
-0.03573957 -0.02235089 -0.017477365 0.022231394 -0.025898596 0.011611656 0.010416659 0.018284013
0.008069001 -0.0015517011 -0.022868924 0.029024052 -0.015904326 0.0041353907 -0.0104922615 -0.04576116
0.036916334 -0.060339287 0.01581214 0.021459287 -0.030707331 -0.008238372 0.033918645 -0.008863554
0.061748806 0.013673974 -0.0047117183 -0.007851983 -0.0064791488 0.03076678 0.02868581 0.014320533
-0.07377844 0.001696703 -0.010936049 -0.009965747 -0.010821541 -0.0151061835 -0.021585193 -0.013804173
0.012552653 0.016727176 0.010785644 0.008750293 0.020146482 0.0061416263 -0.011055438 -0.0064733983
0.0057035787 -0.031822488 -0.042558815 0.017339705 0.0040226127 -0.0139988 0.0061898036 -0.021209404
-0.0017136632 0.015894415 0.054348398 -0.0003162198 -0.015853038 -0.022696733 -0.0059375586 0.0043069874

action_model._continuous_distribution.mu.bias f4 [2]
00000000: 1cbe 94bb 4d04 30bc
-0.0045392644 -0.010743213

exp_avg f4 [128, 8]
00000000: f33c 5339 9119 abb8 e714 78ba 9b08 0dba
00000010: 3a8b 3939 8200 5e39 a5cc cf39 7ab9 c6b7
00000020: 2c4f 9639 3a61 b239 9ad2 89b9 97d5 b4b9
00000030: fd97 d238 66cf 47b9 733b 2936 0aa8 3cb9
00000040: c882 eb39 f14f c739 a72e 75ba 4975 8cba
00000050: 4487 873a fc12 02b9 35e9 2a3a 81c4 34b9
00000060: 0c44 cc39 d404 013a e18e 67b9 14b3 a8b7
00000070: de98 e5b9 4060 1fb9 694e 11b9 aefa 13b9
00000080: 9ea6 51b9 281d 22b9 40f2 2039 2890 d038
00000090: 6c8a 0139 f1e8 a6b8 9fd3 cfb8 5943 aa37
000000a0: b3f6 8338 dc65 e038 bd23 9cb9 9508 96b9
000000b0: 913c d639 7306 89b8 24c0 8c39 6066 0439
000000c0: 7664 e4b7 6b9e 2239 942c acb9 faa6 16b9
000000d0: 5518 003a 1b1b deb9 5629 7cb8 a0ab d4b8
000000e0: 3805 cfb9 a033 2db9 9205 a43a 93a5 873a
000000f0: 142a 60ba 0e31 5639 1552 22ba a7a7 2c38
00000100: 464a 11b9 9ded 1638 09f8 89b8 0978 7a39
00000110: a9b8 46b9 7033 8e38 b8cb c5b8 0c0d 8238
00000120: 45fe 75b7 138e c4b8 1517 74b9 f02d 5bb7
00000130: 8205 dfb9 6eb9 1938 30ba f1b8 6820 88b8
00000140: c35b 4bba 5886 eeb9 6fd0 3639 87f3 c739
00000150: 0553 b239 5d6e 05b9 a0c9 0339 0e2a 3239
00000160: 566c eb39 c581 9539 ab87 4fba c8ea 5fba
00000170: 6fd7 013a f45f 11b9 af71 fe39 8879 e1b8
00000180: 2f1f aab9 c5d6 54b9 2dbc 183a 82c4 423a
00000190: e760 1fba 9804 b238 018c c8b9 8278 8439
000001a0: ed6a 74b7 24c4 ec38 7a5a c239 48be 90b9
000001b0: 5681 0939 acbb b4b8 b333 13b8 6e4c b7b9
000001c0: a537 84b9 3e09 a7b9 047d 173a da44 273a
000001d0: 42ab b9b9 95f8 1439 cf7b a7b9 9984 4339
000001e0: 39c7 8038 be33 ebb6 bbc4 5e39 fe5f 9639
000001f0: 1c60 dfb9 6992 6039 5756 ac38 9ce4 d339
00000200: 958e 4bb8 057f 13b9 44d4 b638 5605 a939
00000210: 7173 21b9 b6c8 a039 0894 aab8 5fc0 5539
00000220: 30e5 4bb9 007e 0eba 22d3 1639 a308 4f39
00000230: f8ef 0eba 409a f739 0775 d9b8 433d 9039
00000240: 5cb1 8039 eea7 9539 8391 2cb9 9440 a438
00000250: 6407 19b9 7f4a 0bb9 c73d e8b8 2bee 7ab9
00000260: 9c9f bcb6 436c b437 f0f8 6db7 8f43 48b9
00000270: 6fde dfb7 51e4 7438 a5df f038 a676 43b7
00000280: c12c 00b9 c84d 2fb9 c93b 9038 4658 6939
00000290: 9465 35b9 df4b 97b7 fbaa 15b9 e5f5 6238
000002a0: 8d9b c7b9 e866 ecb9 2c36 573a 1067 673a
000002b0: 4a25 fbb9 5b1c 6f39 98f0 fdb9 d254 9039
000002c0: f2ac bbb8 c15b 8f38 518f 8538 22bf 67b9
000002d0: e5b1 3239 cfdb 60b9 6713 b6b7 6bc7 7cb9
000002e0: f0d5 06ba 2ded e7b9 9292 ae39 3cfa 6439
000002f0: 2b97 81b8 b13e dd39 7d43 4c39 4cbf 103a
00000300: d7ef f839 9482 b039 c727 8cba f323 5fba
00000310: 3841 0a3a 9fc6 22b9 df83 0e3a 132b 81b9
00000320: 81f6 3439 480c 12b9 a047 0cba 36b4 29b9
00000330: 851f 0f39 9e7f 7838 b359 8239 281a 03b9
00000340: 9bea 8db8 0fde 18b8 6a25 8039 9063 1239
00000350: 103d 9236 ffbe 1339 d4fc fcb7 2ae2 9a37
00000360: 34ee 9738 3b67 82b8 5d19 29b9 48b0 ef38
00000370: a809 d038 394b 4536 0457 1738 d14c 56b7
00000380: 34b6 17ba 711d 23b9 9787 8239 e756 d2b9
00000390: 8f6c 383a 80a3 95b8 2f85 7039 6775 42b8
000003a0: 96c9 da39 c442 8a39 d891 b5ba f5f6 98ba
000003b0: 8de5 a63a 2d78 44b6 1fa6 7b3a b3a2 c838
000003c0: 5fee 80b9 e0be 87b9 8d83 7f3a ded2 493a
000003d0: 5338 cfb9 7b34 cf39 6ab0 a6b9 8b90 7539
000003e0: 4e3b ff39 ebf6 a239 6cb5 9bba 7892 9dba
000003f0: 8217 853a 776b 9cb8 679b 4a3a 14db 3ab9
0.00020145233 -8.1586775e-05 -0.0009463564 -0.00053800055 0.00017694841 0.00021171759 0.0003963459 -2.3689809e-05
0.00028669217 0.00034023245 -0.00026287587 -0.00034491412 0.0001004189 -0.00019055381 2.5217566e-06 -0.00017991677
0.00044920132 0.000380158 -0.000935296 -0.0010716106 0.0010339995 -0.00012404838 0.0006519736 -0.00017239341
0.0003896061 0.0004921679 -0.00022083103 -2.011055e-05 -0.0004379218 -0.00015199278 -0.00013857488 -0.00014112398
-0.00019993863 -0.00015460385 0.00015349034 9.945064e-05 0.00012353965 -7.9588855e-05 -9.909947e-05 2.029694e-05
6.292518e-05 0.00010700125 -0.00029781266 -0.00028616624 0.00040862386 -6.53387e-05 0.00026846037 0.00012626639
-2.7226499e-05 0.00015508539 -0.0003283961 -0.00014367318 0.0004886438 -0.00042363335 -6.011998e-05 -0.000101409154
-0.00039486005 -0.00016517797 0.0012513867 0.0010349028 -0.0008551192 0.00020426905 -0.0006192041 4.1164134e-05
-0.00013855947 3.598408e-05 -6.578869e-05 0.00023886574 -0.00018951543 6.7806686e-05 -9.4316376e-05 6.201313e-05
-1.466234e-05 -9.372472e-05 -0.00023278252 -1.3064113e-05 -0.00042537978 3.6650737e-05 -0.00011526456 -6.4910215e-05
-0.0007757509 -0.0004549499 0.0001743452 0.0003813768 0.0003401266 -0.00012724982 0.00012568245 0.0001699107
0.0004490341 0.0002851618 -0.00079166394 -0.000854176 0.00049530616 -0.00013864023 0.00048531356 -0.00010751473
-0.0003244816 -0.00020297903 0.000582638 0.00074297946 -0.0006079808 8.488557e-05 -0.00038251284 0.00025266787
-1.4568429e-05 0.00011289891 0.00037069974 -0.0002760759 0.0001311352 -8.6180255e-05 -3.509568e-05 -0.00034961425
-0.0002521846 -0.00031859608 0.00057788217 0.0006380804 -0.00035413547 0.00014206984 -0.00031944967 0.00018646046
6.140624e-05 -7.0095693e-06 0.00021244858 0.0002868175 -0.00042605482 0.00021416847 8.217681e-05 0.00040415383
-4.853176e-05 -0.00014066331 8.717974e-05 0.00032238167 -0.00015397162 0.0003066712 -8.133805e-05 0.00020384927
-0.00019444968 -0.00054356456 0.00014383768 0.00019744276 -0.0005452628 0.00047226436 -0.000103691644 0.00027511464
0.00024546206 0.00028544612 -0.00016457406 7.832158e-05 -0.0001459397 -0.00013283825 -0.00011074129 -0.00023930582
-5.6214176e-06 2.1508085e-05 -1.4184261e-05 -0.00019098654 -2.668725e-05 5.838677e-05 0.00011485749 -1.1650531e-05
-0.00012223703 -0.00016718276 6.877591e-05 0.00022253496 -0.00017299346 -1.8035933e-05 -0.00014273443 5.4111606e-05
-0.00038072132 -0.000450901 0.00082096714 0.0008827308 -0.00047902233 0.0002280338 -0.00048435177 0.00027529016
-8.9490684e-05 6.835862e-05 6.368629e-05 -0.00022101079 0.00017041674 -0.0002144419 -2.1705126e-05 -0.00024106882
-0.00051435735 -0.00044236463 0.0003329707 0.00021836994 -6.1793566e-05 0.00042199114 0.00019480097 0.00055216695
0.0004748094 0.00033666624 -0.0010693007 -0.0008512132 0.00052740006 -0.00015523516 0.00054365204 -0.0002463689
0.00017257968 -0.0001392822 -0.0005351249 -0.0001618423 0.00013649285 5.924666e-05 0.00024862363 -0.00012502878
-6.7671026e-05 -3.6446432e-05 0.00024441938 0.00013960735 4.3582477e-06 0.00014090164 -3.0158473e-05 1.8463546e-05
7.24461e-05 -6.218111e-05 -0.00016126545 0.00011429243 9.9200115e-05 2.9399073e-06 3.6082245e-05 -1.2773279e-05
-0.0005787343 -0.00015555859 0.00024896555 -0.0004011907 0.00070352195 -7.135328e-05 0.00022937798 -4.6362544e-05
0.00041730393 0.00026371155 -0.0013852669 -0.0011670279 0.0012733206 -2.9276227e-06 0.0009599644 9.567048e-05
-0.00024591663 -0.0002589142 0.00097470806 0.0007698963 -0.00039524082 0.00039521218 -0.00031793426 0.00023418867
0.00048681576 0.00031083016 -0.001187963 -0.00120218 0.0010154101 -7.4586766e-05 0.0007728845 -0.00017819955

exp_avg_sq f4 [128, 8]
00000000: 6f17 c335 aa1b 9a35 ec7d 7437 c989 cd36
00000010: da62 9037 bb47 1736 0eb2 0036 97fb d735
00000020: 0d59 3735 7618 1935 a91d e036 c831 ef35
00000030: 1ef5 f336 a573 8535 0621 7335 6662 0535
00000040: d52b 6f36 001a 0c36 6546 3138 02e1 7837
00000050: 9247 2b38 5353 ad36 9d87 c536 f53d 4836
00000060: 9cc6 d435 009c a835 9076 1836 774e 7c35
00000070: a018 3136 d1bf 7f35 8b71 3035 b46d 6035
00000080: 60f6 2b34 dfb5 2534 f38a 0c35 072e bf34
00000090: 76e2 2235 e3b0 3634 59e1 5c34 58f8 2134
000000a0: 06cd 7935 989d 0a35 b210 3b37 12fa 5a36
000000b0: b424 4b37 177c c835 1bef 7935 89c8 3d35
000000c0: 1691 aa35 b26c 0936 2e26 6336 62cb 0536
000000d0: ec31 8d36 ea03 a635 b78e 9535 856c 8435
000000e0: 7ef0 8936 5832 1836 2fcc 4a38 a3e6 6637
000000f0: de3f 4a38 a605 ed36 3c15 bb36 387d 3636
00000100: 5ef9 de34 d130 2135 a9f2 6b36 67dd d335
00000110: 5a70 4a36 3ebd 0c35 c9a3 c734 c787 2835
00000120: 261a 2035 1ca2 0835 8cbb ca36 fa52 2436
00000130: eba6 f336 2052 2e35 1750 1235 717e 6c35
00000140: 3922 3136 b42f 7b36 92f7 9a37 610b f836
00000150: 7d8d f937 cab8 7336 5e4c a435 b9e5 0736
00000160: f709 2136 c3a9 0c36 9153 2138 6e3d 2937
00000170: 2d45 1b38 54ea 9c36 6b83 7236 e80b cb35
00000180: 335e 4a35 5c44 4b35 ff36 8037 97fc 8936
00000190: 1f1c 9d36 0b74 4f35 726b c336 fb3c e134
000001a0: e99a db35 d7b9 2e35 b2f0 1537 f266 4f36
000001b0: 196a 1037 db13 ed35 3047 7335 44f7 d235
000001c0: 04d4 7b35 6ce8 2135 d2cd 0837 549d 3536
000001d0: 509c b136 6366 6635 d927 0a36 5710 0b35
000001e0: 5a11 5235 9fa4 da34 67d2 4336 074b 1b36
000001f0: a507 8d36 6e4d 8b35 caa0 8335 51fa 9035
00000200: 0a17 9635 e064 bc35 d937 9336 27e3 ed35
00000210: 71b5 0f36 bad7 8435 3d00 3c35 7094 3535
00000220: 3145 1536 a96e 6b36 9baa 8237 5afd c736
00000230: 9ce6 ee36 3f0c 2336 ba81 f435 90f9 f635
00000240: fd6e f934 fd4c c134 2443 0c35 c67d aa34
00000250: 0697 0735 bd2b a834 d1db 5334 31e6 9234
00000260: c768 a634 8aa7 ee33 c9ed 4735 b7e3 f034
00000270: 6e58 1b35 a4b6 7534 1781 6c34 ca89 7534
00000280: 7c1e 3035 543a de34 ac4f af36 edd6 cb35
00000290: 93d4 cd36 2780 6535 7526 4c35 14ba 1735
000002a0: 4d62 2236 25c5 ef35 178c ed37 ca51 1937
000002b0: c5bd 8f37 fda9 3c36 c782 5736 a470 b835
000002c0: e893 8635 d513 2735 a38f 3936 a9b5 c335
000002d0: ef0c 4a36 db17 5335 d8cb 1035 c641 4135
000002e0: c6d2 8935 fbd2 0b36 f744 0036 bfca e235
000002f0: faf8 0f36 ef42 5735 4805 4235 a97b 6c35
00000300: 3d76 1236 8fa0 0d36 9dc1 0f38 cdd7 2737
00000310: 03aa c337 4c18 6c36 1c38 6236 dcd0 a935
00000320: 52cf de35 c1b6 cb35 a255 5d37 c4d5 8136
00000330: 7a54 3a37 59a5 f935 75f7 3136 ce07 b035
00000340: de05 2235 e9f0 ad34 e1c6 d835 4bb1 7e35
00000350: d1f2 f135 347d 0f35 d6a9 c434 8fee df34
00000360: 1b89 9f34 0d7a b034 1d96 ba35 f674 1435
00000370: f5d4 cc35 f68d 9134 d680 f633 1a96 8134
00000380: 0dbc 7836 9fe5 1036 1985 7f37 1c37 0137
00000390: 7bd4 8c37 a30c 7936 fc32 4d36 8c47 5936
000003a0: 0ae8 fe35 31e6 a935 09e9 1938 ad8e 2e37
000003b0: 23e5 d437 5010 3636 fe95 1937 65af 9935
000003c0: 630a 2436 4e77 d435 e480 1738 6944 1137
000003d0: 42a2 bf37 02a5 9236 fb41 c836 1521 9f35
000003e0: d9d1 1a36 d251 e135 91e7 2138 6877 4b37
000003f0: bf16 0338 d7da 9436 d932 8c36 be16 ce35
1.4535452e-06 1.1481945e-06 1.4572852e-05 6.1255164e-06 1.7212169e-05 2.2542506e-06 1.9177128e-06 1.609197e-06
6.83024e-07 5.7032537e-07 6.679173e-06 1.7821376e-06 7.2704997e-06 9.942929e-07 9.057261e-07 4.968955e-07
3.5639289e-06 2.087676e-06 4.226565e-05 1.4834341e-05 4.0836232e-05 5.165502e-06 5.886845e-06 2.9838386e-06
1.5853034e-06 1.2562377e-06 2.2718777e-06 9.3991497e-07 2.638939e-06 9.527403e-07 6.5730336e-07 8.360614e-07
1.6015247e-07 1.5432987e-07 5.235626e-07 3.5610012e-07 6.0679247e-07 1.7014422e-07 2.0571078e-07 1.508464e-07
9.3058077e-07 5.1638335e-07 1.1149956e-05 3.2630091e-06 1.21082885e-05 1.4937276e-06 9.310767e-07 7.0699804e-07
1.2708213e-06 2.047786e-06 3.384786e-06 1.9936929e-06 4.207939e-06 1.2369103e-06 1.1142901e-06 9.86635e-07
4.110915e-06 2.267907e-06 4.8350714e-05 1.3762768e-05 4.8220034e-05 7.063808e-06 5.5755063e-06 2.7193e-06
4.153216e-07 6.004821e-07 3.5158976e-06 1.5785162e-06 3.0165743e-06 5.242945e-07 3.7185808e-07 6.278246e-07
5.9642696e-07 5.089985e-07 6.0419025e-06 2.4486203e-06 7.261396e-06 6.493956e-07 5.4505784e-07 8.810085e-07
2.6394976e-06 3.7429681e-06 1.8473515e-05 7.3923006e-06 2.9748999e-05 3.6317383e-06 1.2241178e-06 2.0250284e-06
2.399667e-06 2.096044e-06 3.846322e-05 1.0087488e-05 3.7019305e-05 4.6764417e-06 3.6137305e-06 1.5128144e-06
7.538794e-07 7.572287e-07 1.5284399e-05 4.1123235e-06 4.6822383e-06 7.7282374e-07 5.823961e-06 4.1953885e-07
1.6361856e-06 6.5090484e-07 8.937133e-06 3.0905326e-06 8.607772e-06 1.7663655e-06 9.0628146e-07 1.5718183e-06
9.381331e-07 6.031539e-07 8.154153e-06 2.7062679e-06 5.2932082e-06 8.583067e-07 2.0586797e-06 5.180531e-07
7.8256346e-07 4.0725442e-07 2.9179735e-06 2.3140472e-06 4.2030174e-06 1.0378842e-06 9.807056e-07 1.0801688e-06
1.1182576e-06 1.403645e-06 4.387443e-06 1.7723986e-06 2.1414273e-06 9.897551e-07 7.0035804e-07 6.764376e-07
2.2243005e-06 3.5082141e-06 1.5576652e-05 5.960156e-06 7.119799e-06 2.429602e-06 1.8217172e-06 1.840106e-06
4.646062e-07 3.6005068e-07 5.2251767e-07 3.175648e-07 5.0511187e-07 3.1324262e-07 1.9730875e-07 2.7362105e-07
3.0996145e-07 1.1113214e-07 7.44793e-07 4.4869168e-07 5.787068e-07 2.2883847e-07 2.2026175e-07 2.286753e-07
6.560947e-07 4.1393162e-07 5.2246814e-06 1.518723e-06 6.134223e-06 8.5495634e-07 7.6051884e-07 5.652266e-07
2.41971e-06 1.7864264e-06 2.8317836e-05 9.138554e-06 1.7135297e-05 2.811313e-06 3.211362e-06 1.3741851e-06
1.0026824e-06 6.224121e-07 2.7650756e-06 1.4581502e-06 3.0107874e-06 7.863834e-07 5.394081e-07 7.1993816e-07
1.0268639e-06 2.083542e-06 1.911363e-06 1.6897319e-06 2.1453584e-06 8.019114e-07 7.2278317e-07 8.80968e-07
2.182452e-06 2.1104095e-06 3.4274173e-05 1.0004221e-05 2.332498e-05 3.5180883e-06 3.3709284e-06 1.2652267e-06
1.6600627e-06 1.5177867e-06 1.3192564e-05 3.869385e-06 1.1106133e-05 1.8600068e-06 2.6519094e-06 1.3115293e-06
6.035824e-07 3.2399046e-07 1.6151135e-06 9.488037e-07 1.8026568e-06 5.3453846e-07 3.6631417e-07 4.171056e-07
2.9715815e-07 3.2871358e-07 1.3901769e-06 5.5304497e-07 1.5261163e-06 2.7111645e-07 1.1478703e-07 2.4137336e-07
3.706434e-06 2.159133e-06 1.5230174e-05 7.70183e-06 1.6788244e-05 3.7111247e-06 3.0577057e-06 3.2377166e-06
1.8992007e-06 1.2658476e-06 3.6695074e-05 1.04044275e-05 2.537907e-05 2.7129608e-06 9.154433e-06 1.1450435e-06
2.444395e-06 1.5829953e-06 3.6121244e-05 8.6586015e-06 2.2844531e-05 4.3703485e-06 5.9681456e-06 1.1856051e-06
2.3069936e-06 1.6787619e-06 3.8601054e-05 1.2127544e-05 3.1254018e-05 4.43622e-06 4.1782446e-06 1.5354815e-06

exp_avg f4 [128]
00000000: 937d 97b9 b8d8 d237 3471 1bba 7dbf 8339
00000010: 2c95 aa38 e007 0cb9 fffa a539 3671 2c3a
00000020: 5a5b 0539 b29a e9b5 8045 88b9 ca26 87b9
00000030: 4c0d 4b39 a78f 6db9 a848 5139 fc90 e535
00000040: 238e 0339 c487 cfb8 79ad eb38 67fc 86b8
00000050: 7539 4738 d066 c439 cc9d 8db8 a9e6 37b9
00000060: c849 beb9 2e43 3fb9 22dd 9438 19d9 14b8
00000070: 0060 c6b9 f50e dcb9 b519 dd39 5ab8 17ba
00000080: bb0f 92b9 d8d1 b3b9 9a09 7ab8 b6e7 c5b7
00000090: d876 8ab9 bef4 a039 fb12 f4b7 8fa6 2e39
000000a0: 164a b7b9 5137 ca39 9bb4 7ab7 2bd6 56b5
000000b0: 6bd5 3d39 9352 94b6 8044 9d38 b0af 32b9
000000c0: 9754 dfb7 fe16 7d38 5240 45b9 9644 9cb8
000000d0: 630b b7b9 07c4 2db8 8a2d b6b8 7cbc 2738
000000e0: 81eb 7ab9 cab4 d439 ed43 ae38 3e74 6f38
000000f0: a72b c0b9 4fcf 5539 be3f 8eb7 e01a 6439
00000100: dd6a 6538 ff4f 21b9 b672 17ba 2f4e ce39
00000110: a85c 31b8 6994 df38 f1c4 6ab9 4d95 9ab9
00000120: fd31 093a e945 7fb9 1e00 9cb8 369a 293a
00000130: 483a a3b6 8deb ca37 8a57 0eb6 917e 26ba
00000140: c402 40b9 5cbe acb9 3db5 4ab8 c824 9d39
00000150: 1b2e 02b7 fd13 4b39 eb9b cbb9 fb81 2c39
00000160: 27be ed37 92ae bb39 6f2f cbb9 67e4 4337
00000170: acb2 1938 5923 b4b8 e235 bd38 77f8 8eb8
00000180: 3b1d 35b8 391e 6639 1d4d a237 60ae 5ab9
00000190: 65d0 cb38 0eeb 28ba 709f 5f3a 6d48 c0b9
000001a0: d383 a138 8d98 e2b9 42a2 f936 5d10 6438
000001b0: 8dd4 2738 7aad 75b9 c692 3aba e7d4 a938
000001c0: a2a0 e138 4bd6 bd37 cbc5 75b9 f140 adb8
000001d0: fe04 b038 7eb5 b6b9 a3f6 c2b9 f75b 9fb8
000001e0: 6139 d3b8 af09 88b9 defa 24b9 599e 49b9
000001f0: ffc6 8cb8 959a 9cb9 ede2 8137 e756 013a
-0.00028894524 2.5134868e-05 -0.00059296493 0.00025128937 8.134017e-05 -0.00013354374 0.0003165826 0.0006578149
0.000127179 -1.7404875e-06 -0.00025991723 -0.00025778107 0.00019364542 -0.00022655596 0.0001995886 1.7104026e-06
0.00012546084 -9.8958175e-05 0.00011237985 -6.4366315e-05 4.749881e-05 0.00037460634 -6.752796e-05 -0.00017538168
-0.00036294595 -0.00018240206 7.098379e-05 -3.5488138e-05 -0.00037837029 -0.00041972814 0.00042171558 -0.00057876634
-0.0002785901 -0.00034297886 -5.9613587e-05 -2.3592129e-05 -0.00026409957 0.00030699925 -2.9095905e-05 0.00016655981
-0.00034959678 0.00038569656 -1.4943212e-05 -8.003287e-07 0.00018103949 -4.4203566e-06 7.4991025e-05 -0.00017040852
-2.6623062e-05 6.0341314e-05 -0.00018811345 -7.451435e-05 -0.00034912964 -4.142898e-05 -8.6869186e-05 3.9991442e-05
-0.0002392959 0.0004057049 8.309619e-05 5.70903e-05 -0.00036653617 0.00020390491 -1.6957401e-05 0.00021753786
5.469738e-05 -0.00015383957 -0.0005777286 0.00039349633 -4.228638e-05 0.00010661112 -0.00022389345 -0.00029484407
0.0005233584 -0.00024344739 -7.4386815e-05 0.00064698176 -4.8645634e-06 2.4189963e-05 -2.1210603e-06 -0.00063512573
-0.00018311577 -0.00032948225 -4.8329344e-05 0.00029972778 -7.759339e-06 0.00019367035 -0.00038835345 0.0001645162
2.8341148e-05 0.00035797484 -0.00038754518 1.1676085e-05 3.6644444e-05 -8.589653e-05 9.022259e-05 -6.817368e-05
-4.3180986e-05 0.00021945768 1.9347814e-05 -0.0002085506 9.718611e-05 -0.0006443717 0.0008530533 -0.00036675055
7.7016324e-05 -0.00043219738 7.4396676e-06 5.4374676e-05 4.0013856e-05 -0.00023429646 -0.0007117208 8.098204e-05
0.00010758756 2.2630344e-05 -0.00023438704 -8.261379e-05 8.393264e-05 -0.00034848967 -0.00037186322 -7.5988406e-05
-0.00010071952 -0.00025947156 -0.00015733714 -0.00019227843 -6.712786e-05 -0.0002986981 1.5483669e-05 0.0004933909

exp_avg_sq f4 [128]
00000000: 2e63 fd35 646c 3935 3344 9036 2dcf 6635
00000010: 91c3 2f34 79a3 8f35 cb4f 9b35 fd29 9e36
00000020: 0edf 1435 cc93 4335 c656 3236 ff03 4736
00000030: 497b 8435 aa0f d335 74ae 5735 22a7 8f35
00000040: 4bd6 6435 5856 0e36 1ea0 9234 b057 8c34
00000050: ff46 2835 185d 1a36 921a 4335 5e18 6835
00000060: d608 2736 c1e0 ce35 c36f 0535 68dc 8834
00000070: 1752 6f36 408c 2736 5054 3e36 8512 5236
00000080: 6e35 1a36 e8e8 ba35 8664 e236 b687 eb36
00000090: 1529 ca34 fa21 fc36 5a82 ba35 1fd8 ad35
000000a0: 3a4e 8636 d1ae 1e36 fa8e d335 b86d 9e34
000000b0: 54cf 8d35 6647 a034 eec6 5034 fbb1 4836
000000c0: c67f 4136 902f 7535 00f7 fb35 8aae cb35
000000d0: 0eb3 4437 cb7f ca34 6163 9f35 e35f 9035
000000e0: 1544 2636 3fea 9a35 8445 5b35 5c53 1835
000000f0: 1ae7 1237 4297 ea35 7afc 2535 c76a d034
00000100: af70 3435 40ea 7734 0ea5 4836 59be cd35
00000110: b8c2 ad33 0f2e 4435 8641 2135 2861 b035
00000120: 75fe b336 2f69 c435 30f4 8134 fd79 bd36
00000130: 8e64 ab34 de28 c535 53c6 9934 180b 2c37
00000140: 39ce c835 483e 1b37 8dd3 b733 0909 5236
00000150: 320d 4b34 563a 2e35 260b b735 1e13 e734
00000160: c617 6634 c942 4a36 200b f536 af0f 5136
00000170: cb28 6936 9c98 9035 8607 ee35 652c b935
00000180: 911e 3b35 36df 0535 6951 1235 ee45 a936
00000190: 37ba 7734 0fdd 9e36 655a b536 f37a 8436
000001a0: 99d7 1b35 f0d6 a536 b813 3235 bfff 1236
000001b0: 5d93 6436 080d 4235 707a f536 b997 f234
000001c0: aa75 3135 ec4a c035 ecc4 d635 2433 8d35
000001d0: a467 d635 3e7a 8d36 37e9 8c36 4f34 b334
000001e0: 7a9c dd35 6280 0735 9e89 cd34 a712 7535
000001f0: 62e7 8935 94a1 8835 61d8 b036 4c86 4e36
1.8878834e-06 6.90756e-07 4.299474e-06 8.598316e-07 1.6369292e-07 1.0701907e-06 1.1571623e-06 4.713655e-06
5.5458884e-07 7.2858234e-07 2.6574576e-06 2.9655637e-06 9.870647e-07 1.5725284e-06 8.0347604e-07 1.0702972e-06
8.5248456e-07 2.1209908e-06 2.731112e-07 2.6140833e-07 6.268819e-07 2.3001976e-06 7.2681826e-07 8.6462194e-07
2.4890082e-06 1.5413608e-06 4.9708996e-07 2.549234e-07 3.5661558e-06 2.4966575e-06 2.8361283e-06 3.1303218e-06
2.2978888e-06 1.3925865e-06 6.7470273e-06 7.0193446e-06 3.7655323e-07 7.5141406e-06 1.3896017e-06 1.2952404e-06
4.002618e-06 2.3645591e-06 1.5762337e-06 2.9509624e-07 1.0565659e-06 2.9854272e-07 1.944388e-07 2.990592e-06
2.8833615e-06 9.1338825e-07 1.8772844e-06 1.5175476e-06 1.17242e-05 3.7718414e-07 1.1875346e-06 1.0756743e-06
2.4775557e-06 1.1542069e-06 8.1685016e-07 5.6745716e-07 8.756086e-06 1.747838e-06 6.183469e-07 3.882071e-07
6.72192e-07 2.3088887e-07 2.9898397e-06 1.5329089e-06 8.0913594e-08 7.3082714e-07 6.0072523e-07 1.3141298e-06
5.3642384e-06 1.463375e-06 2.4205792e-07 5.6468402e-06 3.1924395e-07 1.4689538e-06 2.864277e-07 1.0254582e-05
1.496118e-06 9.253221e-06 8.5600824e-08 3.1297698e-06 1.8910649e-07 6.490494e-07 1.3637807e-06 4.3041013e-07
2.1429068e-07 3.013922e-06 7.302864e-06 3.1152556e-06 3.474345e-06 1.0773251e-06 1.7734571e-06 1.3796495e-06
6.970741e-07 4.9871176e-07 5.4507706e-07 5.0447334e-06 2.3071412e-07 4.7345015e-06 5.4047437e-06 3.9482197e-06
5.8055736e-07 4.942405e-06 6.633886e-07 2.190456e-06 3.4060424e-06 7.2289595e-07 7.3158226e-06 4.5186405e-07
6.610886e-07 1.432692e-06 1.6001554e-06 1.0520203e-06 1.5974406e-06 4.2163583e-06 4.199475e-06 3.3379408e-07
1.6511324e-06 5.047824e-07 3.8284355e-07 9.1296755e-07 1.0274637e-06 1.0179815e-06 5.2703986e-06 3.0774563e-06
