Assets/results/BBMultiplePrefabs/BalanceBall/checkpoint.pt (torch, 450530 bytes, 44 tensors)

network_body.observation_encoder.processors.0.normalizer.running_mean f4 [8]
00000000: fefa 8b3f a267 bb3f 7ad2 8f3d 1cc9 f83a
00000010: 9f88 3bbc 2cdc 0bba 6fa7 71bc deef 0e3a
1.0935972 1.4641001 0.07022567 0.0018980834 -0.011446147 -0.00053352374 -0.014749392 0.0005452613

network_body.observation_encoder.processors.0.normalizer.running_variance f4 [8]
00000000: 701f c048 c3f9 8248 0ef0 e745 fe08 2645
00000010: 688d c545 952e 3748 87e8 9547 44fe 5948
393467.5 268238.1 7422.007 2656.562 6321.676 187578.33 76753.055 223225.06

network_body.processors.0.normalizer.running_mean f4 [8]
00000000: fefa 8b3f a267 bb3f 7ad2 8f3d 1cc9 f83a
00000010: 9f88 3bbc 2cdc 0bba 6fa7 71bc deef 0e3a
1.0935972 1.4641001 0.07022567 0.0018980834 -0.011446147 -0.00053352374 -0.014749392 0.0005452613

network_body.processors.0.normalizer.running_variance f4 [8]
00000000: 701f c048 c3f9 8248 0ef0 e745 fe08 2645
00000010: 688d c545 952e 3748 87e8 9547 44fe 5948
393467.5 268238.1 7422.007 2656.562 6321.676 187578.33 76753.055 223225.06

network_body._body_endoder.seq_layers.0.weight f4 [128, 8]
00000000: 88eb 473f fdee 8c3d db2c d43e 575e 443e
00000010: 2aa1 8ebe 8c37 94be c1f7 14bf 9c5d cb3e
00000020: 643d b2be e988 f93e dd68 c3bc 41ea 423e
00000030: fb2b 13bf adc7 febe 1c2e 9c3d 8b83 513d
00000040: 61db 34bb b136 413e 3fe5 0f3f 79f4 c83e
00000050: 8787 c43c f492 a33e 572b 0b3f 26e0 03be
00000060: a727 e53e f311 cc3d 80cf 423e afc1 6bbe
00000070: 42b5 43be 0552 983e df6a 403e 8e79 d23d
00000080: fb8b 153e c53f 59bf e4aa 063f 5ea3 a8be
00000090: 2a06 fabe 0fd4 e0bd 7819 a83d c2a7 34bf
000000a0: 67ce ec3d 9e49 aa3e d15b 073e 8afe bdbd
000000b0: e1a6 ad3e 2d09 2d3e 83b7 a9be 2709 da3d
000000c0: 9535 bfbe e36c 81be 4fac fa3d 5c74 a6bd
000000d0: fe49 6ebf ee64 1dbf 9e66 a73d 59bf 0cbe
000000e0: d97a 0abf 95b2 933d 4bcc 2e3e b529 6c3e
000000f0: f9d2 54bd 945e 19bf a741 25bd 6aeb db3d
00000100: 31fd 79be a4a5 933d 78cd 59bd 4723 55be
00000110: 5a00 973e a8d3 54be e607 edbe c868 28be
00000120: 5a2a a83d 0c1b 8e3d 99e6 2d3e 502c f5bd
00000130: 7f03 dbbe 032c 073f dd49 173f 3fe0 23be
00000140: 96c3 af3e 8759 a03e 97e9 353f ab87 10bf
00000150: 4215 e03e 44a3 24bf 4cb5 333e 0d18 4dbd
00000160: 4f52 883e 227e 013e 865a 5abe db88 59bd
00000170: 5980 193f f251 c93d f3ee 7d3d 0879 1f3d
00000180: 3b9a f93d c136 3abf cecd 00bf 2193 f03c
00000190: fac5 27be 4c09 b8be e711 0ebf 3ce0 e43e
000001a0: c0ab bb3e 9ba9 e53b 0612 04bf f375 14bc
000001b0: 45e6 d6be c465 9b3e 3ca6 99be 108d e6be
000001c0: 62dd e53e 5583 bf3e 57a3 24bf 2c4a c83d
000001d0: ec9a c3bd dd8d 0fbf 805f 02be e091 3fbe
000001e0: d337 6cbc 2abb e5bd 86c5 933d 1272 febd
000001f0: c23f 22be 600b f0be 197b 56be 9ff5 73be
00000200: 7161 e8bd 0630 873d 1697 35bf 65f7 bcbe
00000210: 9959 37bf bff8 62be 4225 103e 9504 20be
00000220: 2263 e13d 3f1d 483e cbb6 1dbe 4220 1dbd
00000230: 8644 203e cc2c 89be d992 1cbf af59 9abe
00000240: 0e04 41be 36c4 083e 571c 653e 43ae 8e3e
00000250: 42c4 ffbe 4dea 14be 2987 8b3d affa 0fbe
00000260: fb39 5abe 9994 ebbe 3003 923e fd59 9f3e
00000270: 3fe2 0bbf 897f f13e 9dc9 f43d d16b 8abe
00000280: 113b 313e 99a7 023e 3913 30be c4fb 9f3d
00000290: 4a6a 0dbe 28c7 52be a437 8a3d f745 ffbe
000002a0: eba5 a73c ad9e d9be 837a 883e d6b3 cbbe
000002b0: 587f bb3e aeb9 6e3d 5c1c 473e 500c dc3e
000002c0: cddb be3e d146 24bf 4b10 803d 155e f63e
000002d0: 05db d6be e687 fbbd 4174 a7bc e9e7 85be
000002e0: 87ce 6e3d 42ca 433e 0edf 94be e10c 95be
000002f0: 6f9a 983d 5311 32bc 6872 9abd 1551 913e
00000300: 2d64 aa3e a966 55be 0e45 62be 6636 a53d
00000310: d1dc da3c f86d f63e d8f4 343f c7c2 d3bc
00000320: 96c4 c4bc e000 18bf e4f0 4e3f d5b5 303f
00000330: 3cc7 41be 480d 073f 823d 403e c326 edbe
00000340: 7828 503e 02c1 1cbe fb5b 60be c772 ef3d
00000350: cdfc bc3e 5124 8d3e 0131 3ebe f80f 833e
00000360: dc10 3cbe a6dc 08bf 253f efbd f509 8d3e
00000370: 3570 02bf 5504 a53e 9c6d 923e 2ba0 eb3d
00000380: 32f6 6d3d 42ea 6ebe c70f c8bc 1857 88be
00000390: 7a30 e9be 4cd8 563e 7893 2a3e fa7b d83d
000003a0: 6984 53be 7c1d 54be c27f 2fbc c578 25bf
000003b0: 1577 33be 92c9 b1be 6f24 a33e c612 e93e
000003c0: a1dc 87bd 7c01 0cbd bc90 3abe ba0c c0be
000003d0: 78dc 25bd 87f8 ee3d ebb9 9ebe 2359 b63d
000003e0: 05e5 8c3e f254 98be 2962 dcbe a9d8 b9be
000003f0: 0e3a febe d912 d7be 2db9 67bd 845f d0bd
0.7809377 0.06881521 0.41440472 0.19176613 -0.27857333 -0.2894863 -0.5819054 0.39719856
-0.34812462 0.48737267 -0.023853714 0.19034673 -0.57488984 -0.49761716 0.07625982 0.05115084
-0.002759658 0.1886852 0.56209177 0.39249018 0.023990406 0.31948054 0.54363006 -0.12878475
0.44756815 0.09964361 0.19024467 -0.23023103 -0.19112113 0.29750076 0.18790768 0.10277091
0.1460418 -0.8486293 0.5260451 -0.3293714 -0.48832828 -0.10977947 0.08207983 -0.7056848
0.115628056 0.3325929 0.13218619 -0.09277065 0.3391638 0.16898032 -0.3314782 0.10646277
-0.37345567 -0.25278386 0.122398965 -0.081276625 -0.93081653 -0.6148213 0.081738696 -0.13744868
-0.540937 0.07211796 0.17070119 0.23062785 -0.05195901 -0.5990994 -0.040345814 0.10738261
-0.24412991 0.07209328 -0.053174466 -0.20814238 0.29492456 -0.20783865 -0.4629509 -0.16446221
0.08211203 0.069387525 0.16982497 -0.119713426 -0.42776105 0.5280153 0.5909708 -0.16003512
0.34328908 0.31318304 0.71059555 -0.5645701 0.43766218 -0.64311624 0.17549628 -0.050071765
0.26625296 0.12645772 -0.21323594 -0.05310903 0.5996147 0.09830083 0.061995458 0.038933784
0.1218762 -0.727398 -0.50314033 0.029367032 -0.16384116 -0.35944593 -0.55496067 0.44702327
0.36654472 0.007008744 -0.5159 -0.009061324 -0.41972557 0.3035108 -0.3000964 -0.45029497
0.44895464 0.37404886 -0.64311737 0.09779772 -0.095510334 -0.5607584 -0.12731743 -0.1870799
-0.014417606 -0.11217339 0.07215409 -0.12424101 -0.15844634 -0.46883678 -0.20945396 -0.23824166
-0.113467105 0.066009566 -0.70933664 -0.36907497 -0.7162109 -0.22165202 0.14076713 -0.15626748
0.11005236 0.19542406 -0.15401761 -0.03836084 0.1565114 -0.2679199 -0.6116157 -0.30146548
-0.18849203 0.13356099 0.22374092 0.27867326 -0.4995442 -0.14542504 0.06812889 -0.14060472
-0.2131118 -0.4601181 0.28518057 0.31123343 -0.546421 0.47167614 0.11952517 -0.27035382
0.17307688 0.12759246 -0.17194833 0.07811692 -0.13810077 -0.20583785 0.06748894 -0.49858066
0.020464858 -0.42503873 0.2665597 -0.3978564 0.36620593 0.058282547 0.19444412 0.42978144
0.3727707 -0.6417056 0.06253108 0.48118654 -0.41963974 -0.1228178 -0.020441176 -0.26153496
0.05830243 0.19120124 -0.29076427 -0.29111388 0.07451331 -0.010868388 -0.075413525 0.28382173
0.33279553 -0.20839943 -0.22096655 0.08067016 0.026716622 0.48130774 0.706861 -0.025849713
-0.02401952 -0.59376335 0.8083632 0.69027454 -0.18923658 0.5275464 0.18773463 -0.46318635
0.20327938 -0.15308002 -0.21910088 0.11691814 0.36911622 0.2756677 -0.18573381 0.2559812
-0.18365806 -0.5346168 -0.11681966 0.2754666 -0.50952464 0.32229868 0.2859925 0.11505159
0.05809612 -0.2333155 -0.024421586 -0.26628947 -0.45544797 0.20980948 0.16657817 0.10570522
-0.20655979 -0.20714372 -0.010711612 -0.64637405 -0.17525895 -0.34724098 0.31863734 0.45522135
-0.066338785 -0.034181103 -0.18219274 -0.3750971 -0.04049346 0.116684966 -0.3100122 0.0890372
0.27518478 -0.29752308 -0.4304364 -0.3629811 -0.49653667 -0.42006567 -0.05657308 -0.10174468

network_body._body_endoder.seq_layers.0.bias f4 [128]
00000000: e5c4 ca3b 8dc1 debc ceaf b4bc 43f0 b03b
00000010: dee1 28bc 5854 923b 2460 28bd 78f5 50bc
00000020: b15f 47bc 00a5 c53c 8748 51bc d28b 1abd
00000030: 5164 7ebd 9127 bcbc 4481 b5bc b86b febb
00000040: 41df 283c f2c3 59bd c774 ae3b 0a5c fdbc
00000050: adeb 2cbc d1cb 69bd 6085 03bd 4111 52bd
00000060: 12ea a2bc cb5f a33c 0769 893b 29b3 01b8
00000070: 0d89 803c b581 cebc d698 7cbd 4ca0 37bd
00000080: 4d4e ecbc 3462 5dbd 7ed0 fdbc 6143 65bc
00000090: 4a9b 7ebc 76c0 17bc ed4b 2dbd a981 183c
000000a0: 38ba 0fbc 77ac a5bc 672b f0bb 184c 96bb
000000b0: 82fe 63bb 0ede eebb 6394 fcbb 28e1 dabc
000000c0: fc1e b0bc d8c7 43bc bf09 69bc 5fed abbb
000000d0: cc6a d4bb 6a63 b3bc 17b4 e4ba b7d8 903b
000000e0: 88a5 c5bc 64ce 9f3c f75d 0fbc f514 10bc
000000f0: f9e9 12bc 0716 8cbc f1a7 15bc 5a2a 023b
00000100: 972b 13bc 6d65 55bd fcd0 c7bc 860e 2e3b
00000110: e9f0 c9bc 0378 b2bc a458 24bc 5768 92bc
00000120: 94bd 13bd da22 58bd 8593 d5bb f89c a7bc
00000130: 2f22 ddbc aeb5 62bc e799 54bb f71e e2bc
00000140: 2bda 0eba 9c85 63bc f52b 00bd ac5a 09bd
00000150: 53d0 f3bc 7525 743c d108 37bd 8025 39bc
00000160: cab0 2abc 6ec7 78bd f1cd afbd 4606 3cbc
00000170: 9dcf 52bc ba42 efba 9007 12bd d2cc 68bc
00000180: 8f91 733c b2d6 a4bc ab9c 0c3c 8e7d 483c
00000190: 3273 12bb 6fb0 80bd ea80 87bc a266 b63b
000001a0: aac5 35bc 5a4d 993c 75ba 0fbd 9eb6 b8bc
000001b0: ece0 af39 8d46 01bd b096 ee3a b8f6 91bb
000001c0: d56b 8bbb f4f8 79bb 54aa aa3b e25b e2bb
000001d0: bca9 0d3c 8ed7 fcbb 496f 41bc 9f8d 63bd
000001e0: 1182 5ebb a4b4 6a3b cdb3 033c cb5e 97bc
000001f0: 2936 20bc ed53 4bbb 1906 e33a a548 c1bc
0.0061880224 -0.027191902 -0.022056486 0.005399735 -0.010307757 0.004465621 -0.04110731 -0.012753837
-0.012168811 0.02412653 -0.0127736395 -0.037731 -0.062107388 -0.022968085 -0.022156365 -0.007764306
0.010307134 -0.053165384 0.0053239795 -0.030927677 -0.010554236 -0.05707914 -0.03210962 -0.051285986
-0.019887004 0.019943139 0.0041934284 -3.0922853e-05 0.01569035 -0.025208334 -0.061669193 -0.044830605
-0.02884593 -0.054048732 -0.030983206 -0.013993115 -0.0155399535 -0.009262195 -0.042308737 0.009308257
-0.008772425 -0.02022384 -0.0073293927 -0.004586708 -0.003478915 -0.0072896546 -0.0077081188 -0.026718691
-0.02149915 -0.011949502 -0.014223515 -0.0052468027 -0.0064824577 -0.02189799 -0.001744869 0.0044203657
-0.024126783 0.019507594 -0.00875043 -0.008794059 -0.008966916 -0.017100347 -0.009134279 0.001986167
-0.008982561 -0.05209868 -0.024391644 0.002655895 -0.024651008 -0.021785742 -0.010030899 -0.017872019
-0.036069468 -0.052767612 -0.00651783 -0.02046059 -0.02699384 -0.013837261 -0.0032440366 -0.027602656
-0.00054493797 -0.013886835 -0.03129192 -0.033533737 -0.029762423 0.014901509 -0.044686142 -0.011300445
-0.010418126 -0.060737066 -0.08584202 -0.011476105 -0.012866882 -0.0018254139 -0.035651743 -0.014208989
0.014866247 -0.020121906 0.008582274 0.012236966 -0.0022346494 -0.06283652 -0.016540963 0.005566434
-0.01109449 0.018713642 -0.03508993 -0.022548016 0.0003354618 -0.031561423 0.0018202867 -0.00445446
-0.004254798 -0.0038142772 0.005208293 -0.006907926 0.008646425 -0.007716126 -0.011806318 -0.055554982
-0.0033952037 0.0035813237 0.008038473 -0.018477818 -0.009778538 -0.0031025365 0.0017320543 -0.02359421

network_body._body_endoder.seq_layers.2.weight f4 [128, 128]
00000000: b4bf e43d 4fed 473e e9d9 4c3e 9d70 1c3d
00000010: 186f 28be 58a5 10be b55e 99bd a0c3 acbd
00000020: a1bb 45be ac1c 3bbb 0902 233e d278 3ebc
00000030: ef29 d4bc 3739 493c 6ab1 bcbd 23a2 1abe
00000040: 8685 1b3e 55f8 0cbc 1614 4d3e b987 37bc
00000050: 899a a53c 02c4 01be 5844 143e 57db 153e
00000060: 4e1f 3b3d a387 c2bb d591 32bd 018b 28be
00000070: 76e8 d2bc 8ee0 b9bd 15a3 c8bd d6ae 7d3d
00000080: 5629 cebd ab82 323b 75e5 dcbd 407d 593d
00000090: ba31 fc3b 0596 023a 402c c3bc a054 8cbc
000000a0: 6806 c0bc f4ef 1d3e 5f69 e1bc d806 103d
000000b0: e6f0 97bd 0119 a23c 6403 49bd d8f0 ca3d
000000c0: b638 413d 594d 103d afa5 4b3e 01bb 1ebe
000000d0: 5561 a5bd 3f60 da3d 847b 76bd db52 afbd
000000e0: b29c 9bbd beb6 d6bd 9149 933d 21b4 1cbd
000000f0: 7dd6 17bc 4199 e6bd 7892 27bc 91ee a6bc
00000100: 13a6 b9bd c148 d3bd c089 3bbd 13e7 a43d
00000110: a411 ed3d 1ad7 d6bc 753e b5bd cc6b 0ebe
00000120: 7892 afbd cdd1 67bd 2ee4 fdbd 7553 56be
00000130: d6d9 06be 462a 3abd d4b3 e53d 9f7e 19bc
00000140: 6806 c23d 5d8b 45bd e0e0 e9bd 87f4 8ebd
00000150: 6931 b83d cfc0 34bc fd57 913c d035 d13d
00000160: d115 85bd 2bc6 913d 4e5f 1c3b 99e1 afbc
00000170: c52c a03d aa1d 323e 80db 473e 4866 bb3c
00000180: 49eb 15be 2615 7b3c 9b4a 15be 7d18 d33d
00000190: c5ad 72bd 4c04 f2bc dd4b f0bc fc4e 1f3d
000001a0: 4c36 c83c c323 cc3c 092b 24be 946e 8bbd
000001b0: 947f c03d fd44 ee3c d823 61bc 993b a9bd
000001c0: 81b4 f3bc cc7c 0fbd 3c71 bebb be08 713c
000001d0: 5f94 c9bd a064 053e 2217 c8bd 1f78 08be
000001e0: f11a 453d 6dfa 5ebc 4871 e6bd c18b aa3c
000001f0: 52c4 b5bd e6df a2bd b359 d4bd 35c3 dc3c
00000200: 2469 abbd 5297 7bbd 253c fe3d 93dd b4bd
00000210: be10 b3bc 59bf d13d 7972 a2bd 08af 8b3d
00000220: 3739 d23d f225 54bc 8541 47bd 9078 003e
00000230: a5a4 dbbd 7560 2fbd 627b e9bc 3d4e f3bb
00000240: 7a69 56bd ec8c abbd 4056 ee3d 7be9 35bd
00000250: 107c 81bc bdfb adbd a985 0a3d fcf1 bd3c
00000260: 0d19 acbb 8fc8 fb3c 15c2 f43d 39bf 453c
00000270: 03ce 803c 08f2 e7ba 22ff 2dbe f507 9abc
00000280: 8d03 6e3d 88d0 bd3c 1290 a33d 698b 203e
00000290: 0fe3 96bd d186 f6bd 1241 e9bc 5d3b 1cbd
000002a0: 183c dcbc 44f4 783d b6fd e1bc 40ad 2fbe
000002b0: 6aba 61bc 883b 373d adf6 5bbb 17cf 42bc
000002c0: 0995 1c3e add3 413e cc9f b6bd 2211 c5bd
000002d0: aab0 e1bd 0a51 423d 80ef 383e 190e 86bd
000002e0: ce7d b73d 4a20 033e c4f7 7dbc 079d dcbb
000002f0: cd4b 65bd 1e87 243d 0595 773c a7c5 32bb
00000300: 9cf8 a73c 0709 19bd e409 f8bd 74dc af3c
00000310: 07c1 d23b 2a7a 6bbd 3cc6 3fbe 7589 49bd
00000320: 6def debd b01e 103e c1f2 b73c c044 15be
00000330: 51c5 86bd 9072 863d 4957 c5bd 0fbd d7bc
00000340: 1431 6cbd 842b e03d 3c7d 803c 2cea 3ebd
00000350: 0792 ecbd 7020 46bd 058b 14be 6656 c6bd
00000360: 5996 d3bd 01a7 a6bd 85a0 c43d 470a 9a3d
00000370: cad5 d9bd 1a7c e43d b36a d8bd 7364 743d
00000380: 4e96 90bd 26dc 4ebd 8e4e aebd c1ed c33d
00000390: a9fe 1e3e 3bee fb3d 881e 84bd 1913 3fbd
000003a0: 6b3f 963d bf00 b03d c063 8abd bf9c af3a
000003b0: eee7 ddbc 2cb7 29bc 55cc 92bd 4af2 523d
000003c0: 5f63 943c 3c08 e03d ff30 653c 3915 483d
000003d0: fa94 a4bd e40d e7bd 234b c3bd f8d2 fbbd
000003e0: d7d2 08be da7b fbbc e440 ee3b 3684 5b3c
000003f0: c1e3 fcbc 51da 973d 3bbd ff3d 1f87 f3bd
0.11169377 0.1952412 0.20005001 0.038193334 -0.16448629 -0.14125574 -0.07488767 -0.0843575
-0.19309856 -0.0028551025 0.15918745 -0.0116254855 -0.025898902 0.0122817075 -0.092135265 -0.15100913
0.15187654 -0.008604129 0.20027193 -0.011201792 0.02021529 -0.12672427 0.14479196 0.14634453
0.04568415 -0.0059365793 -0.043596108 -0.16459276 -0.025745612 -0.090760335 -0.097967304 0.061934315
-0.10066478 0.0027238529 -0.10785953 0.053097963 0.0076963576 0.0004981461 -0.023824811 -0.017130196
-0.023440555 0.15423566 -0.027516065 0.035162777 -0.074189946 0.019787313 -0.0490755 0.099092185
0.047173224 0.035230014 0.19887422 -0.15501024 -0.08075205 0.10662889 -0.060176387 -0.08560725
-0.07598247 -0.10484074 0.07191766 -0.03825772 -0.009267447 -0.112596996 -0.010227792 -0.02037743
-0.09064879 -0.10316611 -0.045785666 0.080518864 0.1157563 -0.026225615 -0.08849803 -0.13908309
-0.085728586 -0.056596566 -0.123970374 -0.20930274 -0.13169035 -0.04545047 0.1121594 -0.009368568
0.09473878 -0.04822861 -0.114198446 -0.06980234 0.08993799 -0.011032297 0.017742151 0.10215342
-0.06498302 0.07117876 0.0023860517 -0.021469878 0.07821039 0.17394128 0.19517326 0.02287592
-0.14640535 0.015324866 -0.14579241 0.10307405 -0.05924775 -0.029543065 -0.02933305 0.038893685
0.024439953 0.024919396 -0.16032042 -0.068082005 0.093993336 0.02908563 -0.013741456 -0.082633205
-0.029749157 -0.035031125 -0.0058118384 0.014711557 -0.09842753 0.13026667 -0.09770037 -0.13327073
0.048121396 -0.013609511 -0.112520754 0.020818593 -0.08875336 -0.079528615 -0.10368671 0.02694855
-0.08369663 -0.061423607 0.124138154 -0.088313244 -0.02185857 0.10241575 -0.0793199 0.06820494
0.10264819 -0.0129485 -0.04864647 0.12545991 -0.10724763 -0.042816598 -0.028501216 -0.007425098
-0.052346684 -0.08376488 0.11637545 -0.044412117 -0.015806228 -0.08495281 0.033818875 0.023186676
-0.0052520097 0.030735282 0.11951081 0.012069517 0.015723234 -0.0017696032 -0.16991857 -0.018802622
0.058108855 0.023170725 0.079864636 0.15678181 -0.07367527 -0.12037433 -0.02847341 -0.03814255
-0.026884124 0.060779825 -0.0275868 -0.17155933 -0.013777355 0.044734508 -0.0033563778 -0.011890194
0.15291227 0.18928404 -0.089171976 -0.096224084 -0.11020024 0.047440566 0.18060112 -0.06545658
0.08959542 0.12805286 -0.015500966 -0.0067325863 -0.055980492 0.04016792 0.015111213 -0.0027278455
0.020504288 -0.037362125 -0.121112615 0.021467425 0.006431702 -0.05748955 -0.18727964 -0.049203355
-0.108855106 0.14074206 0.022454621 -0.14577007 -0.06580604 0.0656482 -0.09635789 -0.026335267
-0.057663992 0.109458 0.015684716 -0.046610042 -0.1155129 -0.04837078 -0.14506157 -0.09684448
-0.10331411 -0.08137322 0.09600929 0.075214915 -0.1063648 0.11156483 -0.10567226 0.05966611
-0.07059918 -0.05050292 -0.08511077 0.09566832 0.15526833 0.12301298 -0.06451136 -0.046649072
0.07336315 0.08593892 -0.06757307 0.0013398154 -0.027088132 -0.010358613 -0.071678795 0.051500596
0.01811379 0.109390706 0.013988732 0.048848365 -0.080362275 -0.11281946 -0.095358156 -0.122960985
-0.13361679 -0.030698705 0.007270919 0.013398221 -0.03087032 0.074146874 0.12487265 -0.11891007

network_body._body_endoder.seq_layers.2.bias f4 [128]
00000000: b33c 3dbc bfce 483b 8226 663c 3231 95bc
00000010: 18be 1abb e1ea 68bc 9918 643b a595 163c
00000020: 72c4 113a 1a25 60bc 67b4 a03c 8534 033c
00000030: 3fab 52bd a2a5 2dbd c39f 383c 5fa6 87bb
00000040: a832 36bd 600a bdbb 0499 80bc 1165 0dbd
00000050: 8c8c 66bd 765e 9e3b a703 a3bc 2ded 22bc
00000060: 062a 6cbb 6182 bdba c1e8 15bd 4c02 ccbc
00000070: d938 fdbb ea58 10bd 0435 10bd ee61 b2bc
00000080: 5c26 913c 807a cbbb 233c a63b 3920 8abb
00000090: 73c6 0c3c e7ec 6dbc b6db 96bc 2921 e0ba
000000a0: cfd4 83bc 5934 0c3c 2eb1 88bc 9f4f 2fbc
000000b0: 3157 a1b9 07f9 b6bc 46bd d4bc 8133 ab3b
000000c0: ff4e 2bbc d950 1dbc 6afe 7f3b 28f0 abbc
000000d0: e4b4 32bc 4fa7 d7bc f992 30bc 36a1 0abc
000000e0: 831b 40bc a7d1 90bb 979d 66bc 18e1 01bd
000000f0: eddc d7b9 a2cb f4bb 3d80 cfbc 0999 a53b
00000100: c1d6 b0bc 537a 66bc fc5f 14bc 2b7a 3ab9
00000110: 92cf c5bc 5496 993a 9648 c0bc c35a a5bc
00000120: a864 013a e641 89bc 56a0 d4bb 202b 89bc
00000130: b6e5 f0bb a1f8 8b3c 661a 0e3c 2472 033b
00000140: 65c4 87bc 7440 703b e9ba 303c e58a 063c
00000150: a0f7 033c a1bd 4c3b fa1b 0cbd 9591 5a3c
00000160: a0ff 2cbc ece9 cdbb 6479 98bb 1df6 4abd
00000170: e191 30bd 600d 5dbc 36d0 cf39 d908 03bd
00000180: 6b07 a6bc 086d 20bc b00e 8b3b 8ab3 eabb
00000190: 52bd 193b c85f 5fbc d4c7 a539 f65e b3bc
000001a0: cb85 213c c79c 9fbc 0b3d c1ba 3beb 0dbc
000001b0: aff1 48bc 2f7c 77bb afe5 b5bc ac70 b3bc
000001c0: 5b35 d939 9683 efbb 7053 21bc 301e f6bb
000001d0: bd64 0c3c 1148 23bc c06f c0bc 823f 8bbb
000001e0: 4dc0 f3bc 593c 8b3c d5b1 1cbd 7ee2 9dbc
000001f0: 1029 59bc bc69 00bd b8a5 69bd 471b b33a
-0.011550116 0.0030640808 0.014047267 -0.018211935 -0.002361184 -0.014216156 0.00348047 0.0091909515
0.00055605837 -0.013680721 0.019617273 0.008008127 -0.051432844 -0.042394288 0.011268559 -0.004139706
-0.044481903 -0.005769059 -0.015697964 -0.034520213 -0.05628638 0.004833038 -0.019899203 -0.009944242
-0.003603579 -0.0014458412 -0.036598925 -0.024903439 -0.007727724 -0.035241045 -0.03520681 -0.021775212
0.017718486 -0.0062096715 0.005073087 -0.004215267 0.008592236 -0.014521814 -0.018415313 -0.0017099726
-0.016092686 0.0085574025 -0.016686048 -0.0107001355 -0.00030773276 -0.022335542 -0.025969159 0.0052246456
-0.010455846 -0.009601795 0.0039061555 -0.020988539 -0.0109073855 -0.026324896 -0.0107772285 -0.008461287
-0.011725309 -0.0044195238 -0.014075658 -0.031708807 -0.00041172598 -0.007470564 -0.025329703 0.0050536436
-0.021586778 -0.01406725 -0.009056088 -0.00017783853 -0.024146829 0.0011717775 -0.023472112 -0.02018488
0.00049359584 -0.016755056 -0.00648884 -0.016744196 -0.0073516024 0.017086329 0.008673286 0.0020057047
-0.01657314 0.003665951 0.01078675 0.008211826 0.008054644 0.0031240957 -0.034206368 0.0133403735
-0.010558993 -0.006283989 -0.0046531428 -0.04955112 -0.04310787 -0.013491958 0.00039637246 -0.03199086
-0.020267209 -0.00979162 0.0042436942 -0.007162516 0.002345879 -0.013633676 0.00031620136 -0.021895867
0.009858559 -0.019483937 -0.0014742924 -0.00866204 -0.012264653 -0.0037763228 -0.022204248 -0.021904312
0.00041429218 -0.0073093874 -0.009846553 -0.007510923 0.00856894 -0.009965912 -0.023490787 -0.004249514
-0.029754782 0.01699655 -0.03825553 -0.019273039 -0.013254419 -0.031350836 -0.057042807 0.0013664745

action_model._continuous_distribution.log_sigma f4 [1, 2]
00000000: f2bf a0bd 8383 00bd
-0.07849111 -0.03137542

action_model._continuous_distribution.mu.weight f4 [2, 128]
00000000: d113 c03c 2eff 013c 44e3 62bd 3331 aa3c
00000010: 6578 fdbb 2a18 7fbc 78a2 6abc ff34 3bba
00000020: 800f 313d 900e 76bc 7bf0 933a 8a34 47bc
00000030: 1c9a 533c b423 17ba c7da 093a 5505 bc3b
00000040: 193f c7bb 73ed 213d 0f14 9f3b f840 b6bb
00000050: d6e3 733b 4086 44bd f2f8 2bbc e11b e33c
00000060: ef75 29bb 81ec 593c 02b6 c637 94e4 a339
00000070: b133 bc3c c31b 4e3c 33f1 293c 1e38 733c
00000080: 11c4 48bd a150 a6bc 5a3c 04bd 2638 abb9
00000090: 07f4 103d e690 19bc 005a 66bb e90b cbbc
000000a0: ae84 d2bc d3f9 a0ba 5fa4 f23b f6be c03b
000000b0: fe45 76bb 4119 96b9 fc6f 303b 7647 29bd
000000c0: 275c da3b 5c3a cdba a561 a2ba d0ba 293d
000000d0: dbf1 e1bc 0b5b c03c 8a5e ae3c 600c ddbb
000000e0: 7af5 913c a12a 67bc fd65 c1bc a3fb be3b
000000f0: b9a7 debb 2f7a 483d 8901 c33b e499 853c
00000100: 5cc1 6f3a f548 0c3c f68b 1d3c df18 2cbd
00000110: bb1f 5f3b dcf0 9b3c 397a 143c b11a 543b
00000120: 60d7 cf3c 74b8 66bc aa0f 8fbc 544a 0f3d
00000130: 090f 44bb 9799 b13b a553 7bbc 0500 1ebd
00000140: 365f 21bb 44d0 cabc 5511 84bc 814e bdbb
00000150: e14f 223c 49a8 0dbb fe8b 453a 30db 353d
00000160: ec84 9eba b253 aa3c 1ac7 1fbc 5851 39bb
00000170: ceb2 833b e64a 4bbc a255 d23b 4ba4 19bb
00000180: fde5 973b 9734 6ebb 1e77 ca3c 5d1d 75bc
00000190: 1d35 b4bc 95a2 53b9 2c30 51ba 5876 c13b
000001a0: 1de6 343c 69fc 2f3c 4021 c4bb 763d ddbb
000001b0: 7760 b3bc 79c7 cfbc 8bdf e13a 2d1f ebba
000001c0: 6dba 0f3d 3655 7bbc a327 4a3c 4028 a53c
000001d0: e9ab 09bd 10b7 883c 1869 593c 93f3 81bc
000001e0: 635c 5bba 062c 2bbd 8c58 313c 867e abba
000001f0: bad5 9ebc 5bd6 09bc a133 cb3b c446 053c
00000200: c666 993c 4212 e1bc 9d01 94bb e4e9 a2bc
00000210: d439 aebc 0fa4 88bc 9380 40bd b858 803c
00000220: 9db7 c53c 62a6 8d3c c17f 2f3c bfe0 04bd
00000230: 69ea 673a a52a 3f3c 5acf 3fbd 266c 7e3b
00000240: 8317 b33a 2436 d9bb ad38 c9bc f396 91bb
00000250: ec31 d6bb ab66 adbc 69bd 82bc acfa 4ebc
00000260: 849c dfbc 7ce0 0f3d 44f3 00bb 7331 413c
00000270: c83a 1f3c 2839 373c 7050 d0bb 4a71 6dbc
00000280: 1fc7 41b9 fd55 083c 5f5f 77bc 286a b83b
00000290: df7f f03c 5775 d1bc 2bff 0abc a15a 4dbb
000002a0: dfb5 a7bc dd94 19bc ac36 1dbc b910 87bc
000002b0: c866 cfbc 296b 7cbb ec02 aebb c799 a9bc
000002c0: f376 153d 984d 973b d8d3 013d 4bff 87bc
000002d0: 1cf7 953c 0bb9 b6bb a5bd 6bbc 8c46 2d3d
000002e0: b1ba 333b ed60 1abd 2c2e 1d3c f974 6539
000002f0: 061f e73b c62c 1fbb 7041 df3b 9acd 26bd
00000300: 8e9f 2d3c fbaa 6f3c f95a c73c 958c 4d3c
00000310: ace0 ab3b 1fc1 9f3c 4cef 4c3c 967f 74bc
00000320: e6c5 e63c ca45 1e3c ef7a 13bd f27a a9ba
00000330: ee48 ce3b ec6f 6dbd 74cd 7ebd 3d2b 493d
00000340: 926c 413b 497e e53c 60c8 06bd aad0 783d
00000350: 2fa2 5b3c eff8 08bd 5967 fc39 a62e c73c
00000360: ee9c 39bd a77e 25bc 1627 ebbc cfab 70bc
00000370: 5106 f03b 5b1e 9a3a 8d08 e33b 5fe9 70bc
00000380: 3c5d 60bc f63d 723b d468 803c 547c 313c
00000390: 37c2 1abd 7740 65bc ad30 13bd 6c39 e0bb
000003a0: 83ef 89bd 6dbf 1cbc f710 9a3b 0ade 51bc
000003b0: 34c1 603c 200c 24bc 7f85 b43b b8eb 39bc
000003c0: aa96 f73c b6f1 61bc 2689 a43b 9cce 12bd
000003d0: fc42 b43c 34c1 4d3c ca1c 0dbc 9ed7 03bd
000003e0: acdc 3abc a449 f2bc b3fc efbb 32cb 8cb9
000003f0: 4a91 893c f418 613c 166d 833a 0f5e 523c
0.02344695 0.007934375 -0.05539252 0.020775413 -0.0077352994 -0.015569726 -0.014320962 -0.0007141381
0.043227673 -0.01501812 0.0011286879 -0.012158522 0.0129151605 -0.0005765513 0.00052587356 0.0057379403
-0.00608052 0.03953309 0.004854686 -0.005561944 0.0037214658 -0.047979593 -0.010496365 0.027723255
-0.0025857647 0.013301016 2.3688193e-05 0.00031260087 0.022973867 0.012579861 0.010372448 0.014844922
-0.04901511 -0.020302119 -0.03228412 -0.00032657495 0.035388973 -0.009372925 -0.003514886 -0.024785953
-0.025698032 -0.0012281485 0.0074048485 0.0058821393 -0.003757834 -0.00028629045 0.0026922217 -0.041327916
0.0066638174 -0.0015657651 -0.001238872 0.041437924 -0.027581146 0.023480913 0.021285314 -0.00674586
0.017817248 -0.014109285 -0.023608202 0.0058283373 -0.0067948964 0.04894465 0.0059511107 0.016308732
0.0009145939 0.008562316 0.009615889 -0.042015906 0.0034046012 0.01903575 0.009062343 0.0032364542
0.025371253 -0.014082063 -0.017463524 0.034982994 -0.0029916188 0.0054199207 -0.015339767 -0.038574237
-0.00246234 -0.024757512 -0.016121546 -0.0057771807 0.00990674 -0.0021615198 0.0007535814 0.044398487
-0.0012094057 0.020791862 -0.009752059 -0.0028277244 0.004019118 -0.012407994 0.0064188996 -0.0023443874
0.004635571 -0.0036347264 0.024715003 -0.014960614 -0.021997983 -0.00020183095 -0.00079798955 0.0059040003
0.011041191 0.010741332 -0.005985409 -0.0067517115 -0.021896584 -0.02536367 0.0017232759 -0.0017938368
0.0350899 -0.01534014 0.012338552 0.020160794 -0.033611212 0.016688854 0.013269685 -0.015863216
-0.00083679537 -0.04179003 0.010824334 -0.0013083972 -0.019389022 -0.008412923 0.006201223 0.008134548
0.018725764 -0.027474526 -0.004516794 -0.019886918 -0.021267809 -0.016679792 -0.046997618 0.015667304
0.024135405 0.017291252 0.010711611 -0.032440897 0.00088468805 0.011667882 -0.046828605 0.0038821786
0.0013663623 -0.0066287685 -0.024563158 -0.0044430434 -0.006536713 -0.02116712 -0.015959458 -0.012633007
-0.027296312 0.035126194 -0.0019676248 0.011791575 0.009718604 0.011183061 -0.006357245 -0.014492342
-0.00018480093 0.008321282 -0.015098422 0.005627889 0.029357849 -0.025568647 -0.008483688 -0.0031334537
-0.020472465 -0.009373871 -0.009595554 -0.016487466 -0.025317565 -0.003851602 -0.005310407 -0.02070321
0.036490392 0.004617404 0.03169617 -0.016601225 0.018306307 -0.005576258 -0.0143884765 0.042303607
0.002742451 -0.037690092 0.009593528 0.00021882718 0.007053259 -0.0024288162 0.0068132207 -0.04072342
0.010597123 0.014628167 0.024335371 0.012545724 0.005245289 0.019501267 0.012508225 -0.014922997
0.028170537 0.009660194 -0.03600591 -0.0012930317 0.006295315 -0.057968065 -0.062207654 0.0491135
0.0029514176 0.028014319 -0.032905936 0.060745873 0.013405367 -0.033440527 0.00048142186 0.024314236
-0.045315675 -0.010100997 -0.028705161 -0.0146894 0.0073249717 0.0011758314 0.0069285096 -0.0147040775
-0.013694104 0.00369632 0.015674986 0.010832865 -0.037782874 -0.01399242 -0.035935093 -0.0068427827
-0.06735136 -0.009567124 0.0047017294 -0.012809286 0.013717938 -0.010012656 0.005509078 -0.011347704
0.03022321 -0.013790539 0.005021232 -0.03584157 0.022004597 0.01255827 -0.008612821 -0.03218805
-0.011405151 -0.02957613 -0.0073238253 -0.00026854273 0.016792912 0.013738859 0.0010027017 0.012839808

action_model._continuous_distribution.mu.bias f4 [2]
00000000: a295 03bb f47d 85b9
-0.0020078202 -0.0002546158

exp_avg f4 [128, 8]
00000000: afeb f039 fb43 ca39 8a25 e938 1810 f3ba
00000010: 8ffc 03bb d43b bd39 e71b 00bb aebd 76ba
00000020: 89c0 e938 4402 ed38 65d7 f036 e136 02ba
00000030: 8f95 f9b9 4bc2 9438 8478 08ba e5be 75b9
00000040: 4859 8437 3878 9fb8 a4e2 f9b7 3283 7838
00000050: 5b34 1337 1b54 c9b6 eb67 a538 a922 7637
00000060: 8467 54b8 9753 c3b8 4111 c7b8 e27e eb39
00000070: 97cc ec39 5eea 64b6 7f85 e739 f674 fa38
00000080: 04a5 4839 f90d 4939 0d8b f338 3ea2 6eba
00000090: 4d33 9dba cf02 1a39 77d1 8aba e09a d5b9
000000a0: 358d 23b9 faeb 1839 889a 9139 8384 5a37
000000b0: c1b8 bdb9 44da 34b8 ed5c 9138 2c4c be38
000000c0: 5b8e 10b8 b6ea da38 23dd 2eb8 2513 9438
000000d0: 6405 8239 3d56 a137 41ee 9339 6aa9 8937
000000e0: cad5 57b7 a0cd 77b7 8457 e6b5 0dd5 5db8
000000f0: d459 8837 c371 ab37 a794 ad36 d189 bfb7
00000100: 85b2 92b9 4a6b b239 a803 173a 33eb 2938
00000110: aabc 1dba 3939 afb8 268e cfb8 0cee 4139
00000120: 2c32 f138 d5e3 3537 798f 4cb8 0018 83b9
00000130: 0245 beb9 5626 a538 0780 a4b9 c662 30b9
00000140: 02da 5838 272c 5338 8699 0838 c440 05b9
00000150: 3537 a8b9 eb81 fb37 0a38 1bb9 63d5 93b8
00000160: a9fd 2938 02ab 6fb8 a720 a5b8 5eab 5ab7
00000170: 54cf 8038 4d61 0c38 478e d736 e5a6 14b8
00000180: 5e11 8f38 d9c3 a839 d70d b639 d2fd 4dba
00000190: d4c7 9dba 06d3 b038 cc28 74ba ab99 9eb9
000001a0: d22c 45b8 a356 89b9 789c b3b9 5754 563a
000001b0: abb0 9e3a ad03 b9b7 0da1 853a 0a5f 6d39
000001c0: dd7b 5eb8 0c81 3b39 8504 3239 5853 92b8
000001d0: 1eaa 57b9 7814 04b7 1a7d 21b9 0087 8ab8
000001e0: de31 5e38 dbc3 9139 b5be 5d39 f008 14ba
000001f0: 1894 47ba 977d ae38 63e1 11ba 9e0a 4eb9
00000200: a264 4c39 d7a4 9ab9 9945 10ba 0500 4b39
00000210: 554c 703a 5ce0 fe38 f29b da39 9658 39b9
00000220: 4ad5 a638 e17c 1139 3fad ef38 802f b6b9
00000230: f497 b3b9 bbb6 2d38 8d63 d6b9 b6d6 07b9
00000240: fdf9 6239 b8b9 2439 7738 bfb8 7679 1cba
00000250: 5d6f f5b9 9601 1339 78ec 0dba 34fb 94b9
00000260: b676 ec36 bb7a 4637 169a 20b8 7471 6cb8
00000270: 0dd1 8eb8 ac20 07b7 b9d9 4eb8 f6ab a9b7
00000280: 1bed 7eb7 67a6 86b9 0a39 b6b9 fd5e 153a
00000290: 1ae4 843a f8f0 81b7 93e8 423a 6017 1e39
000002a0: b5a3 3438 9da9 a7b8 2f20 9db8 f622 ba38
000002b0: 0acb 1b38 b52e 83b7 a990 8c38 ae5e 2538
000002c0: 8630 07b8 6fef fa39 3380 f439 e371 1aba
000002d0: 9c4b 87ba d7bc 8e38 90d9 33ba d1ba ecb8
000002e0: 3abb 5d37 9625 8039 27c2 8139 101b e8b9
000002f0: 663d 22ba c492 0338 ccde 19ba c303 13b9
00000300: 61c2 17b8 7ca8 3538 27fc 5638 ba66 45b8
00000310: 8e21 49b8 4bca bc38 2ba6 b3b8 7b74 0ab9
00000320: 79e6 c037 5ed1 b0b8 204b 1db8 ae54 1f39
00000330: baa5 d538 8f58 5436 5ed7 4f39 e3db 9638
00000340: 5b6a dd37 13c6 e5b8 352d d6b8 23c2 25b8
00000350: da6a 3d39 dc80 b4b7 4d22 78b8 5825 ff37
00000360: e765 e4b6 e9a1 dc37 f6d3 48b6 95a5 1739
00000370: fa62 6939 b947 1237 5cd4 2139 f0b9 f537
00000380: ecab 4339 9566 0f39 6073 01b7 ed42 e8b9
00000390: e515 d3b9 c7d6 1839 5e41 f7b9 c727 aab9
000003a0: 0bde 2cb9 4612 c4b8 6568 1eb8 2b59 273a
000003b0: ceb0 503a 85af a0b8 f196 3b3a ee1f 8739
000003c0: f9ed 0fb9 b59f 16b8 6a33 0538 168e 2b3a
000003d0: 6b1d 2d3a d56f b1b8 df55 3e3a 8a59 a739
000003e0: acf9 90b7 fefb 6b39 6767 3539 d60f a9b8
000003f0: 9225 c0b8 6063 6638 c3e3 1936 13af 62b8
0.00045951965 0.00038579092 0.00011117298 -0.0018544225 -0.002013955 0.00036093465 -0.001954788 -0.000941242
0.00011146168 0.00011301463 7.1776326e-06 -0.0004967284 -0.0004760441 7.09338e-05 -0.00052059465 -0.00023436135
1.5777201e-05 -7.604103e-05 -2.978865e-05 5.9249993e-05 8.774073e-06 -6.000058e-06 7.887169e-05 1.4670813e-05
-5.0641145e-05 -9.3138944e-05 -9.492273e-05 0.00044917228 0.0004516586 -3.4111067e-06 0.00044159216 0.000119427146
0.0001913496 0.00019174059 0.00011613043 -0.00091031555 -0.0011993438 0.00014687631 -0.001059099 -0.00040741917
-0.00015597495 0.00014583758 0.0002777169 1.3024665e-05 -0.00036186542 -4.311862e-05 6.9314476e-05 9.074094e-05
-3.4464854e-05 0.000104387684 -4.1690782e-05 7.060756e-05 0.0002479955 1.9232853e-05 0.00028215538 1.6410562e-05
-1.2864775e-05 -1.4770223e-05 -1.7161806e-06 -5.2888925e-05 1.6254293e-05 2.0437763e-05 5.173107e-06 -2.283315e-05
-0.00027980297 0.00034030742 0.00057607377 4.0511786e-05 -0.0006017188 -8.355309e-05 -9.8970064e-05 0.00018494594
0.00011501121 1.0841487e-05 -4.877101e-05 -0.00025004148 -0.0003629104 7.874954e-05 -0.00031375905 -0.00016821464
5.170145e-05 5.034744e-05 3.2567907e-05 -0.00012707995 -0.0003208459 2.998203e-05 -0.00014802828 -7.0492526e-05
4.052898e-05 -5.7141304e-05 -7.873895e-05 -1.3033712e-05 6.1421335e-05 3.346922e-05 6.4240626e-06 -3.5441382e-05
6.822006e-05 0.00032189375 0.00034724057 -0.00078579516 -0.0012037703 8.43164e-05 -0.00093139405 -0.000302506
-4.7010202e-05 -0.00026195226 -0.0003425812 0.000817602 0.0012107095 -2.205543e-05 0.0010195092 0.00022637486
-5.304428e-05 0.00017881783 0.00016977086 -6.9773465e-05 -0.00020567371 -7.872579e-06 -0.0001540076 -6.6054985e-05
5.2975367e-05 0.0002780248 0.00021147246 -0.0005647084 -0.0007613315 8.3203595e-05 -0.0005564896 -0.00019649646
0.00019492445 -0.00029495984 -0.0005503535 0.00019359596 0.0009166648 0.00012153454 0.00041696389 -0.00017675976
7.955225e-05 0.00013874799 0.00011428678 -0.00034749135 -0.00034254754 4.1416595e-05 -0.00040891432 -0.0001295459
0.00021646167 0.00015709444 -9.118107e-05 -0.0005969027 -0.00046813014 0.00014019603 -0.000541396 -0.0002841592
7.047168e-06 1.1830295e-05 -3.8290476e-05 -5.6372446e-05 -6.8100264e-05 -8.054234e-06 -4.9316997e-05 -2.0226445e-05
-1.5194785e-05 -0.0002568245 -0.00034756243 0.0005698053 0.001013878 -1.5490208e-05 0.0007435169 0.00015076762
4.306781e-05 -7.9947735e-05 -7.492338e-05 8.875683e-05 3.7143975e-05 -1.5638167e-05 6.702665e-05 3.9427243e-05
-3.22317e-05 0.00047862108 0.00046634823 -0.0005891604 -0.0010322216 6.806262e-05 -0.00068607274 -0.00011288154
1.3216219e-05 0.00024442066 0.00024749452 -0.0004427065 -0.00061889587 3.136952e-05 -0.0005869686 -0.00014020414
-3.6182235e-05 4.3310676e-05 5.125641e-05 -4.706413e-05 -4.7953385e-05 9.0022186e-05 -8.566336e-05 -0.00013204098
2.2995506e-05 -8.431332e-05 -3.7501683e-05 0.00015194967 0.000101875004 3.164201e-06 0.00019821289 7.1935145e-05
2.6394779e-05 -0.00010956465 -0.00010212736 -3.951987e-05 0.0001806425 -2.1517677e-05 -5.9159753e-05 3.0415758e-05
-6.8067925e-06 2.6301439e-05 -2.99257e-06 0.00014462166 0.00022257483 8.718977e-06 0.00015433267 2.929286e-05
0.00018660695 0.00013675758 -7.715862e-06 -0.00044300352 -0.0004026137 0.0001457586 -0.00047160214 -0.00032454563
-0.00016485916 -9.349412e-05 -3.776736e-05 0.00063838315 0.0007960916 -7.6620876e-05 0.0007155976 0.00025772996
-0.00013726194 -3.5911526e-05 3.1757554e-05 0.0006544305 0.000660381 -8.460848e-05 0.00072607206 0.00031919434
-1.72824e-05 0.00022505221 0.00017300026 -8.061498e-05 -9.1622715e-05 5.4928823e-05 2.2931351e-06 -5.404565e-05

exp_avg_sq f4 [128, 8]
00000000: 0b43 e936 a057 4e37 e8a8 3437 ef59 c637
00000010: 7505 0b38 9db1 7336 aa65 6938 ee4f f936
00000020: 31ff a634 4d79 c034 2a32 b034 8900 e235
00000030: 695e f435 a2f2 4c34 133e 1d36 8e1e de34
00000040: d31e 2635 788f 0835 ff07 2d36 85ba a835
00000050: 8735 2935 1b2f 4c35 114f 3e35 598f 4035
00000060: 00fb 5c35 e595 3635 bae6 3f36 7077 9836
00000070: b690 9836 655b 7435 89b7 a536 c73d b935
00000080: 9871 c335 f4f3 0636 f8b9 7f36 26a5 0b37
00000090: 3358 3637 c7cc 8735 ec38 5a37 6c08 2836
000000a0: cafd c035 e467 9035 3024 cf36 e950 8836
000000b0: d10b 2636 d0ba db35 eec1 7936 3705 e635
000000c0: 9b35 8735 30fd 1336 f3b6 9f36 ba0d 2536
000000d0: 0df6 3d35 5832 5a35 a342 8e35 5642 8835
000000e0: 0adc 9134 237e 9334 692f 3235 260a de34
000000f0: 21e6 a734 2c74 8034 a92c 1535 c6ba 7334
00000100: af60 8a35 007f 1936 a9c2 ca36 df66 8836
00000110: a177 4a36 7a8e 1b35 a7c3 8436 dd0f a335
00000120: 574c 5d35 55f3 7a35 3c45 4236 a2fc 1636
00000130: 4740 a735 e551 8035 2885 ac35 c925 7935
00000140: 5b62 c634 ad29 5534 cf5f a535 ba76 7b35
00000150: 70c2 0835 f726 e434 e9c4 3935 e9e5 da34
00000160: 4dcf be33 db2d 4334 8c07 4835 8d91 1335
00000170: 19bf e533 f362 d133 70a4 2d34 2cbf 9f33
00000180: fc04 6335 7e10 0236 f603 9736 9ba8 0d37
00000190: b820 f836 6e04 0935 f012 2537 056a bf35
000001a0: d8cb 1536 d6fa aa36 72e9 9237 c39e 7737
000001b0: 9f29 ef36 99d9 f735 325a 2237 d92c 3e36
000001c0: ae29 c535 54e5 7b36 7ce4 6737 fd9d 1437
000001d0: cfbd bf35 6cb1 c935 cc98 2136 949f ba35
000001e0: 2bd8 fe35 8a86 8e36 bf82 2b37 8bb5 1737
000001f0: 0eee a736 94d0 9a35 0006 3337 7a80 cd35
00000200: e9e2 3d36 0b5b db36 067d 9137 db87 3d37
00000210: 5801 c536 83d8 d435 b16f f736 8555 5836
00000220: 178a 1335 156c 2f35 0cbc 0c36 4c25 0a36
00000230: 3462 da35 2f2b f734 4c08 3836 9ba7 2f35
00000240: 9931 0136 7a6e 6836 1085 c235 d90a 9a36
00000250: 4958 b736 ad27 5a35 1d38 2037 2526 b335
00000260: f89e a034 d0dd 3735 17db 8234 e3c4 3035
00000270: f22a 2835 7716 2d34 d0d2 cd35 be7b 0534
00000280: ff58 2335 56fc 9c35 f081 3336 46cc 9436
00000290: c3d0 9a36 db3f c134 78a1 a536 dbd8 9e35
000002a0: ab52 6c34 2efa d734 a83a 9735 06a0 4135
000002b0: 79a0 9034 865f 8034 d5c1 8534 1b44 8334
000002c0: 96c3 8a35 35c9 2236 05f4 3236 1632 af36
000002d0: 9f1d f336 7844 6d35 2aa0 1237 649c ef35
000002e0: 0a37 b734 f941 1835 e2a6 1236 9d6f 1736
000002f0: 78ef cd35 810c 9434 08db e335 da80 0a35
00000300: c1aa 1c35 d4c4 a535 1cef 2036 34a4 9935
00000310: c109 0935 0425 0735 f1ea dd34 8994 2d35
00000320: eb2d 2136 20df ae36 5fbb 4936 15b2 8e36
00000330: 9581 a736 d0a2 c735 1110 5137 16b3 ab35
00000340: 32ba 3435 d5d6 b435 c2b7 2236 2ffd b135
00000350: d9e5 6a35 001b 2535 5097 8c35 4bd1 2f35
00000360: 82bc 5935 ea5f ff35 9216 8835 b94a d735
00000370: d410 2b36 98c0 9134 f070 9936 d8a8 3035
00000380: 3b14 0036 1c43 8336 cac3 b036 3413 d636
00000390: 393a 9236 d247 9e35 1253 0b37 9b2a c035
000003a0: 6930 1835 4ebb 5135 c284 3d36 a621 c436
000003b0: 5f2d 9b36 1076 db34 1cdd a236 8c99 9235
000003c0: f58d 0835 c0b2 8835 3821 3836 642c 6336
000003d0: a21c 4d36 fa12 9e34 0e4a 7a36 ce0a 5535
000003e0: 8e48 ab35 6229 6236 f1ce c036 2e8f 5436
000003f0: c2e2 fc35 60ce 4735 2eae b836 242d 7435
6.951746e-06 1.2298959e-05 1.0768163e-05 2.3645318e-05 3.3145265e-05 3.6313206e-06 5.564621e-05 7.4300833e-06
3.1105586e-07 3.5851045e-07 3.2819054e-07 1.6838468e-06 1.8206894e-06 1.908725e-07 2.3430955e-06 4.1372954e-07
6.1884674e-07 5.087272e-07 2.5783663e-06 1.257126e-06 6.30353e-07 7.606447e-07 7.089557e-07 7.173417e-07
8.232164e-07 6.801841e-07 2.8595518e-06 4.5438574e-06 4.5467996e-06 9.103008e-07 4.9387495e-06 1.3801554e-06
1.4561692e-06 2.0109555e-06 3.810621e-06 8.323497e-06 1.0868581e-05 1.0117882e-06 1.3007066e-05 2.5038853e-06
1.4378977e-06 1.0759072e-06 6.1732935e-06 4.062535e-06 2.4742806e-06 1.6371141e-06 3.7216773e-06 1.7137853e-06
1.0073885e-06 2.2052081e-06 4.7598674e-06 2.4594906e-06 7.076604e-07 8.128459e-07 1.0599218e-06 1.0152096e-06
2.7168454e-07 2.747266e-07 6.637916e-07 4.1358106e-07 3.1273615e-07 2.3926384e-07 5.5571815e-07 2.2699086e-07
1.030994e-06 2.28727e-06 6.0427305e-06 4.0650916e-06 3.0169979e-06 5.794933e-07 3.9566835e-06 1.2149063e-06
8.2440005e-07 9.348635e-07 2.8948552e-06 2.2498793e-06 1.2461177e-06 9.560578e-07 1.2853752e-06 9.2814713e-07
3.6951937e-07 1.9852332e-07 1.2321342e-06 9.3677556e-07 5.094689e-07 4.249666e-07 6.920441e-07 4.0772946e-07
8.885272e-08 1.8177472e-07 7.451679e-07 5.497357e-07 1.0698404e-07 9.75032e-08 1.6171703e-07 7.4387884e-08
8.4571343e-07 1.938111e-06 4.500612e-06 8.443511e-06 7.394785e-06 5.1042923e-07 9.839176e-06 1.4261465e-06
2.2321383e-06 5.095596e-06 1.7513263e-05 1.4759312e-05 7.1276004e-06 1.8466263e-06 9.676953e-06 2.833831e-06
1.4689774e-06 3.75354e-06 1.3821871e-05 8.858272e-06 1.428585e-06 1.5027304e-06 2.407981e-06 1.3904523e-06
1.8987388e-06 4.247592e-06 1.0222836e-05 9.04257e-06 5.004701e-06 1.1534598e-06 1.0670628e-05 1.5311082e-06
2.8295274e-06 6.5373074e-06 1.7343566e-05 1.1296909e-05 5.871214e-06 1.5858244e-06 7.374176e-06 3.2236287e-06
5.4962715e-07 6.534986e-07 2.0971083e-06 2.0585312e-06 1.6270847e-06 4.6038755e-07 2.7422966e-06 6.543648e-07
1.9251368e-06 3.4635e-06 1.4492853e-06 4.5908205e-06 5.4641027e-06 8.1269064e-07 9.549808e-06 1.3347641e-06
2.9917987e-07 6.849559e-07 2.4373796e-07 6.5851617e-07 6.264737e-07 1.6120053e-07 1.5335045e-06 1.2431607e-07
6.085174e-07 1.1696345e-06 2.6748712e-06 4.4345243e-06 4.6138607e-06 3.5995512e-07 4.9361806e-06 1.1835031e-06
2.2009287e-07 4.02289e-07 1.1267448e-06 7.213097e-07 2.693885e-07 2.391136e-07 2.4914212e-07 2.4450205e-07
1.0338724e-06 2.4257e-06 2.6666105e-06 5.221237e-06 7.2454127e-06 8.8389015e-07 8.739569e-06 1.7852403e-06
3.4126452e-07 5.6720415e-07 2.1852834e-06 2.256572e-06 1.5343385e-06 2.7576246e-07 1.6976564e-06 5.159651e-07
5.836301e-07 1.2350743e-06 2.3981038e-06 1.1447178e-06 5.105067e-07 5.0345284e-07 4.13354e-07 6.466367e-07
2.4017597e-06 5.2115793e-06 3.0060398e-06 4.2526613e-06 4.992073e-06 1.487404e-06 1.24611115e-05 1.2792614e-06
6.7326175e-07 1.3473569e-06 2.4246842e-06 1.3261214e-06 8.7506265e-07 6.150658e-07 1.0474851e-06 6.549714e-07
8.1113114e-07 1.9026895e-06 1.0139358e-06 1.6040495e-06 2.549078e-06 2.7148485e-07 4.572903e-06 6.581081e-07
1.9085262e-06 3.911917e-06 5.2680016e-06 6.3799325e-06 4.357917e-06 1.179282e-06 8.304387e-06 1.4317515e-06
5.669486e-07 7.813113e-07 2.824047e-06 5.8451724e-06 4.624642e-06 4.087783e-07 4.8537167e-06 1.0922536e-06
5.087052e-07 1.0184813e-06 2.7437472e-06 3.3851475e-06 3.0564047e-06 2.94436e-07 3.7296008e-06 7.9364406e-07
1.2761609e-06 3.3700712e-06 5.746137e-06 3.1673803e-06 1.8841458e-06 7.443359e-07 5.5039045e-06 9.096277e-07

exp_avg f4 [128]
00000000: b196 c939 fb92 9b38 896d 0637 b7ce eeb8
00000010: 942e 3939 3cd2 0fb9 eebf 0bb9 f1a2 ee37
00000020: 64df 32b9 18b0 5938 e281 9735 e8ca 8238
00000030: c343 ea38 a474 eeb8 e9b8 32b8 1517 1e38
00000040: 237e 4938 fb52 f438 1d7e aa38 abff 98b6
00000050: 5f1c 98b8 f937 0637 93f9 58b8 34d9 9c38
00000060: 0f21 e836 5c3a 29b6 9dab a238 b0eb acb8
00000070: 8d3e 5838 cb12 23b9 8012 4db9 24d4 c8b8
00000080: ceec 65b9 601b 5ab8 7353 e738 939d 1cb9
00000090: 07f9 5038 a835 a0b8 c2a4 e2b8 7301 3c39
000000a0: c1a5 6fb7 ea32 2438 4657 2d39 3820 95b8
000000b0: 51fd 4139 46d0 7238 0a05 c2b7 3443 34b8
000000c0: 7abb fab7 13a7 26b9 86a5 ce38 c2a1 5539
000000d0: 49c9 8a38 2547 c338 91e1 b0b6 cc88 8939
000000e0: 1d72 bb37 41ef 6936 8766 3039 7a63 27b8
000000f0: 2d45 d2b7 5508 0539 3d18 04b6 3c29 1239
00000100: 5e26 1639 ac54 f5b7 351b 8438 c602 b935
00000110: 03cd 80b8 a98c 1337 af2a 8ab8 0f01 b738
00000120: 920f b338 410f c5b8 8084 3538 a9a3 16b8
00000130: d196 ecb8 e8f8 7838 2890 2839 d19a 5d38
00000140: cbb5 89b8 97a8 8738 a732 2539 cc4c 96b8
00000150: ff0b beb8 8818 3b38 ccfc 0cb8 e75f cf37
00000160: 8edd 90b8 d7c2 25b8 94de 4eb8 f165 b3b7
00000170: e933 48b8 5b2c fcb7 4f9b dcb7 2f42 97b7
00000180: 4462 a139 3c7b 9eb6 b6af 8fb8 b0c7 ffb6
00000190: ac13 6d38 452e 12b8 9a32 4c38 4cfc 8b39
000001a0: f6df 00b6 a465 05b9 0a6c 4e37 2149 7cb7
000001b0: 3a16 ceb6 7616 77b8 6e9c cb37 0678 4738
000001c0: d5ee ee37 df56 14b8 3163 8738 79cd 2fb7
000001d0: 57ce 2539 9736 b1b7 8c62 f138 4147 12b7
000001e0: 9d4d f4b7 5fa1 76b8 9370 25b8 531d 50b7
000001f0: 53cb bd38 3c63 db35 4146 bb37 20d8 aab7
0.0003844998 7.418353e-05 8.0125255e-06 -0.00011387228 0.00017660327 -0.00013715861 -0.00013327572 2.8447686e-05
-0.00017058622 5.190083e-05 1.1288178e-06 6.236677e-05 0.00011170611 -0.000113704504 -4.2610718e-05 3.7691632e-05
4.803961e-05 0.00011650283 8.129722e-05 -4.5597167e-06 -7.253209e-05 8.000055e-06 -5.1730847e-05 7.479117e-05
6.9179873e-06 -2.5216932e-06 7.7567274e-05 -8.245499e-05 5.1556668e-05 -0.00015551892 -0.00019557215 -9.5762574e-05
-0.00021927358 -5.2000745e-05 0.00011030482 -0.0001493602 4.982299e-05 -7.639389e-05 -0.00010807208 0.00017929617
-1.4284103e-05 3.9148064e-05 0.00016531078 -7.110875e-05 0.00018500282 5.7891266e-05 -2.3128949e-05 -4.2977932e-05
-2.9889623e-05 -0.00015893234 9.8536766e-05 0.00020373522 6.617845e-05 9.311576e-05 -5.271468e-06 0.00026232598
2.2345275e-05 3.485897e-06 0.00016822862 -3.9908547e-05 -2.5066163e-05 0.00012686972 -1.9683641e-06 0.00013939006
0.00014319408 -2.9245704e-05 6.299318e-05 1.3784381e-06 -6.141702e-05 8.794633e-06 -6.588303e-05 8.726317e-05
8.538285e-05 -9.396533e-05 4.3277163e-05 -3.5915207e-05 -0.00011281449 5.935962e-05 0.00016075431 5.283469e-05
-6.566531e-05 6.468704e-05 0.00015754496 -7.166862e-05 -9.0621405e-05 4.460712e-05 -3.3614037e-05 2.4720981e-05
-6.907723e-05 -3.9520524e-05 -4.932152e-05 -2.1385933e-05 -4.773206e-05 -3.0061396e-05 -2.6298365e-05 -1.8031422e-05
0.00030781527 -4.7231133e-06 -6.8515e-05 -7.622839e-06 5.6523524e-05 -3.4852204e-05 4.8684517e-05 0.00026700122
-1.9203849e-06 -0.00012721732 1.2303712e-05 -1.5037397e-05 -6.141866e-06 -5.8910307e-05 2.4272329e-05 4.7557078e-05
2.8483026e-05 -3.5366855e-05 6.4557775e-05 -1.0478653e-05 0.00015812494 -2.1125465e-05 0.00011510131 -8.718868e-06
-2.9123208e-05 -5.880126e-05 -3.944391e-05 -1.2404594e-05 9.0500944e-05 1.6345653e-06 2.2324852e-05 -2.036622e-05

exp_avg_sq f4 [128]
00000000: 8e6b e636 d7a2 9f34 c266 4135 0c37 8b35
00000010: e865 dc35 093f da35 a928 6835 6b54 8a34
00000020: bdcc 7435 4ac7 8235 207f e334 9e58 b133
00000030: fa3b 6035 6251 0836 66e3 b235 b95a dc35
00000040: 3e92 1f36 f4dc 1b35 7c39 d735 091d 8034
00000050: e201 2a35 2c54 7f34 c3d8 9235 e5ce b534
00000060: 49d6 1a35 5dcf 0836 a97e 2335 98bf 3635
00000070: 36b8 e835 cb80 2535 23d9 0035 3e00 8b35
00000080: 8274 a835 a75c a934 fc1a 2234 ed2d d534
00000090: 3665 0a34 e046 7535 6955 0d35 071c 9f35
000000a0: dd01 1b35 3ecf a934 e043 1836 eca9 cb35
000000b0: c424 f035 ef57 bc35 fb05 d434 4d40 d835
000000c0: eea7 2c35 a7ee 1635 5e0b a934 b76a b435
000000d0: 697d 6535 fbbe 4c35 2957 e934 b9bf 0436
000000e0: 6710 3635 2548 4c36 0e25 c035 f119 ba33
000000f0: cdf0 b634 1939 2e35 0885 1e35 a475 0036
00000100: 75ce a535 202e d633 6168 cb35 2d77 4834
00000110: cfc2 dc35 8a27 1a35 6699 2f35 8330 3c35
00000120: b28d 1335 5867 a534 d77f 4935 df38 ac34
00000130: 6170 bb34 b4d3 0f36 c3ba a535 fb89 4735
00000140: 00e0 e135 ff94 3235 7856 c335 eaf8 2d35
00000150: 2175 8835 191e 1036 fd45 1535 85c8 1a36
00000160: e564 3d34 6213 fd33 3c8c 0534 c63e 9834
00000170: 25f1 3e35 2f88 5235 22b1 e634 bb58 a434
00000180: 2b62 3536 20a6 1035 86d6 b835 692d c034
00000190: e699 2c35 7be9 a734 e53e 8b34 9cfd 4e36
000001a0: 134d d533 e166 5c36 7ec0 da34 c2d8 7c34
000001b0: b342 1636 3b02 f533 dfb5 9f35 1c24 0c36
000001c0: 3bb1 b934 5980 f034 7918 ff34 9090 9034
000001d0: ce05 c535 289e 1535 7538 2635 9e3e 0c35
000001e0: 7af6 5835 f2bc 8f35 718f 8e35 ea49 9c33
000001f0: 4db4 a835 bb03 8135 1f4f 1036 1b56 8c33
6.867055e-06 2.973454e-07 7.2047635e-07 1.0372328e-06 1.6420936e-06 1.6260611e-06 8.6485903e-07 2.5765925e-07
9.1195017e-07 9.743756e-07 4.237454e-07 8.258324e-08 8.353378e-07 2.031295e-06 1.3328215e-06 1.6417681e-06
2.377797e-06 5.806353e-07 1.6035478e-06 2.3862984e-07 6.3332675e-07 2.3779347e-07 1.0940934e-06 3.3864413e-07
5.7681297e-07 2.038628e-06 6.0906547e-07 6.807909e-07 1.7338959e-06 6.165471e-07 4.799969e-07 1.0356378e-06
1.2550884e-06 3.1546116e-07 1.5097243e-07 3.9707757e-07 1.2889072e-07 9.137275e-07 5.265088e-07 1.185458e-06
5.774471e-07 3.1629492e-07 2.2689273e-06 1.5174132e-06 1.7892094e-06 1.4032684e-06 3.9492429e-07 1.6111968e-06
6.4319363e-07 5.622664e-07 3.1486974e-07 1.3442103e-06 8.5491644e-07 7.6273835e-07 4.346305e-07 1.978113e-06
6.782415e-07 3.0440362e-06 1.4315899e-06 8.666019e-08 3.4075347e-07 6.490314e-07 5.905317e-07 1.9141962e-06
1.2353545e-06 9.9735416e-08 1.5155057e-06 1.8669807e-07 1.6447974e-06 5.742701e-07 6.5415804e-07 7.010605e-07
5.496796e-07 3.0808837e-07 7.5064366e-07 3.2078876e-07 3.491323e-07 2.1431888e-06 1.2347813e-06 7.4334065e-07
1.6828999e-06 6.6526985e-07 1.4553798e-06 6.480974e-07 1.0166879e-06 2.1475191e-06 5.560867e-07 2.3064506e-06
1.7638702e-07 1.1784756e-07 1.2437607e-07 2.835788e-07 7.1131427e-07 7.842927e-07 4.296972e-07 3.061194e-07
2.7028243e-06 5.3885924e-07 1.3771503e-06 3.5795827e-07 6.4298945e-07 3.1276053e-07 2.593653e-07 3.0844012e-06
9.932605e-08 3.2842438e-06 4.074572e-07 2.3548185e-07 2.2390566e-06 1.1409107e-07 1.1899355e-06 2.0882644e-06
3.4587887e-07 4.479687e-07 4.7515258e-07 2.6927273e-07 1.4679333e-06 5.5736973e-07 6.1921975e-07 5.2245184e-07
8.082494e-07 1.0709321e-06 1.0621571e-06 7.277761e-08 1.256945e-06 9.612335e-07 2.1503727e-06 6.5349205e-08
